{"format": "graph-model", "generatedBy": "2.19.0", "convertedBy": "TensorFlow.js Converter v4.22.0", "signature": {"inputs": {"input_layer_1": {"name": "input_layer_1:0", "dtype": "DT_FLOAT", "tensorShape": {"dim": [{"size": "-1"}, {"size": "224"}, {"size": "224"}, {"size": "3"}]}}}, "outputs": {"output_0": {"name": "Identity:0", "dtype": "DT_FLOAT", "tensorShape": {"dim": [{"size": "-1"}, {"size": "5"}]}}}}, "modelTopology": {"node": [{"name": "StatefulPartitionedCall/sequential_1/resnet50v2_1/conv5_block1_0_conv_1/convolution/ReadVariableOp", "op": "Const", "attr": {"value": {"tensor": {"dtype": "DT_FLOAT", "tensorShape": {"dim": [{"size": "1"}, {"size": "1"}, {"size": "1024"}, {"size": "2048"}]}}}, "dtype": {"type": "DT_FLOAT"}}}, {"name": "StatefulPartitionedCall/sequential_1/resnet50v2_1/conv5_block1_0_conv_1/Squeeze", "op": "Const", "attr": {"value": {"tensor": {"dtype": "DT_FLOAT", "tensorShape": {"dim": [{"size": "2048"}]}}}, "dtype": {"type": "DT_FLOAT"}}}, {"name": "StatefulPartitionedCall/sequential_1/resnet50v2_1/conv4_block1_0_conv_1/convolution/ReadVariableOp", "op": "Const", "attr": {"value": {"tensor": {"dtype": "DT_FLOAT", "tensorShape": {"dim": [{"size": "1"}, {"size": "1"}, {"size": "512"}, {"size": "1024"}]}}}, "dtype": {"type": "DT_FLOAT"}}}, {"name": "StatefulPartitionedCall/sequential_1/resnet50v2_1/conv4_block1_0_conv_1/Squeeze", "op": "Const", "attr": {"value": {"tensor": {"dtype": "DT_FLOAT", "tensorShape": {"dim": [{"size": "1024"}]}}}, "dtype": {"type": "DT_FLOAT"}}}, {"name": "StatefulPartitionedCall/sequential_1/resnet50v2_1/conv3_block1_0_conv_1/convolution/ReadVariableOp", "op": "Const", "attr": {"value": {"tensor": {"dtype": "DT_FLOAT", "tensorShape": {"dim": [{"size": "1"}, {"size": "1"}, {"size": "256"}, {"size": "512"}]}}}, "dtype": {"type": "DT_FLOAT"}}}, {"name": "StatefulPartitionedCall/sequential_1/resnet50v2_1/conv3_block1_0_conv_1/Squeeze", "op": "Const", "attr": {"value": {"tensor": {"dtype": "DT_FLOAT", "tensorShape": {"dim": [{"size": "512"}]}}}, "dtype": {"type": "DT_FLOAT"}}}, {"name": "StatefulPartitionedCall/sequential_1/resnet50v2_1/conv2_block1_0_conv_1/convolution/ReadVariableOp", "op": "Const", "attr": {"value": {"tensor": {"dtype": "DT_FLOAT", "tensorShape": {"dim": [{"size": "1"}, {"size": "1"}, {"size": "64"}, {"size": "256"}]}}}, "dtype": {"type": "DT_FLOAT"}}}, {"name": "StatefulPartitionedCall/sequential_1/resnet50v2_1/conv2_block1_0_conv_1/Squeeze", "op": "Const", "attr": {"value": {"tensor": {"dtype": "DT_FLOAT", "tensorShape": {"dim": [{"size": "256"}]}}}, "dtype": {"type": "DT_FLOAT"}}}, {"name": "StatefulPartitionedCall/sequential_1/resnet50v2_1/conv1_pad_1/Const", "op": "Const", "attr": {"value": {"tensor": {"dtype": "DT_INT32", "tensorShape": {"dim": [{"size": "4"}, {"size": "2"}]}}}, "dtype": {"type": "DT_INT32"}}}, {"name": "StatefulPartitionedCall/sequential_1/resnet50v2_1/conv1_conv_1/convolution/ReadVariableOp", "op": "Const", "attr": {"value": {"tensor": {"dtype": "DT_FLOAT", "tensorShape": {"dim": [{"size": "7"}, {"size": "7"}, {"size": "3"}, {"size": "64"}]}}}, "dtype": {"type": "DT_FLOAT"}}}, {"name": "StatefulPartitionedCall/sequential_1/resnet50v2_1/conv1_conv_1/Squeeze", "op": "Const", "attr": {"value": {"tensor": {"dtype": "DT_FLOAT", "tensorShape": {"dim": [{"size": "64"}]}}}, "dtype": {"type": "DT_FLOAT"}}}, {"name": "StatefulPartitionedCall/sequential_1/resnet50v2_1/pool1_pad_1/Const", "op": "Const", "attr": {"value": {"tensor": {"dtype": "DT_INT32", "tensorShape": {"dim": [{"size": "4"}, {"size": "2"}]}}}, "dtype": {"type": "DT_INT32"}}}, {"name": "StatefulPartitionedCall/sequential_1/resnet50v2_1/conv2_block1_preact_bn_1/batchnorm/mul", "op": "Const", "attr": {"value": {"tensor": {"dtype": "DT_FLOAT", "tensorShape": {"dim": [{"size": "1"}, {"size": "1"}, {"size": "1"}, {"size": "64"}]}}}, "dtype": {"type": "DT_FLOAT"}}}, {"name": "StatefulPartitionedCall/sequential_1/resnet50v2_1/conv2_block1_preact_bn_1/batchnorm/sub", "op": "Const", "attr": {"value": {"tensor": {"dtype": "DT_FLOAT", "tensorShape": {"dim": [{"size": "1"}, {"size": "1"}, {"size": "1"}, {"size": "64"}]}}}, "dtype": {"type": "DT_FLOAT"}}}, {"name": "StatefulPartitionedCall/sequential_1/resnet50v2_1/conv2_block1_1_conv_1/convolution/merged_input", "op": "Const", "attr": {"value": {"tensor": {"dtype": "DT_FLOAT", "tensorShape": {"dim": [{"size": "1"}, {"size": "1"}, {"size": "64"}, {"size": "64"}]}}}, "dtype": {"type": "DT_FLOAT"}}}, {"name": "StatefulPartitionedCall/sequential_1/resnet50v2_1/conv2_block1_1_bn_1/batchnorm/sub", "op": "Const", "attr": {"value": {"tensor": {"dtype": "DT_FLOAT", "tensorShape": {"dim": [{"size": "1"}, {"size": "1"}, {"size": "1"}, {"size": "64"}]}}}, "dtype": {"type": "DT_FLOAT"}}}, {"name": "StatefulPartitionedCall/sequential_1/resnet50v2_1/conv2_block1_2_pad_1/Const", "op": "Const", "attr": {"value": {"tensor": {"dtype": "DT_INT32", "tensorShape": {"dim": [{"size": "4"}, {"size": "2"}]}}}, "dtype": {"type": "DT_INT32"}}}, {"name": "StatefulPartitionedCall/sequential_1/resnet50v2_1/conv2_block1_2_conv_1/convolution/merged_input", "op": "Const", "attr": {"value": {"tensor": {"dtype": "DT_FLOAT", "tensorShape": {"dim": [{"size": "3"}, {"size": "3"}, {"size": "64"}, {"size": "64"}]}}}, "dtype": {"type": "DT_FLOAT"}}}, {"name": "StatefulPartitionedCall/sequential_1/resnet50v2_1/conv2_block1_2_bn_1/batchnorm/sub", "op": "Const", "attr": {"value": {"tensor": {"dtype": "DT_FLOAT", "tensorShape": {"dim": [{"size": "1"}, {"size": "1"}, {"size": "1"}, {"size": "64"}]}}}, "dtype": {"type": "DT_FLOAT"}}}, {"name": "StatefulPartitionedCall/sequential_1/resnet50v2_1/conv2_block1_3_conv_1/convolution/ReadVariableOp", "op": "Const", "attr": {"value": {"tensor": {"dtype": "DT_FLOAT", "tensorShape": {"dim": [{"size": "1"}, {"size": "1"}, {"size": "64"}, {"size": "256"}]}}}, "dtype": {"type": "DT_FLOAT"}}}, {"name": "StatefulPartitionedCall/sequential_1/resnet50v2_1/conv2_block1_3_conv_1/Squeeze", "op": "Const", "attr": {"value": {"tensor": {"dtype": "DT_FLOAT", "tensorShape": {"dim": [{"size": "256"}]}}}, "dtype": {"type": "DT_FLOAT"}}}, {"name": "StatefulPartitionedCall/sequential_1/resnet50v2_1/conv2_block2_preact_bn_1/batchnorm/mul", "op": "Const", "attr": {"value": {"tensor": {"dtype": "DT_FLOAT", "tensorShape": {"dim": [{"size": "1"}, {"size": "1"}, {"size": "1"}, {"size": "256"}]}}}, "dtype": {"type": "DT_FLOAT"}}}, {"name": "StatefulPartitionedCall/sequential_1/resnet50v2_1/conv2_block2_preact_bn_1/batchnorm/sub", "op": "Const", "attr": {"value": {"tensor": {"dtype": "DT_FLOAT", "tensorShape": {"dim": [{"size": "1"}, {"size": "1"}, {"size": "1"}, {"size": "256"}]}}}, "dtype": {"type": "DT_FLOAT"}}}, {"name": "StatefulPartitionedCall/sequential_1/resnet50v2_1/conv2_block2_1_conv_1/convolution/merged_input", "op": "Const", "attr": {"value": {"tensor": {"dtype": "DT_FLOAT", "tensorShape": {"dim": [{"size": "1"}, {"size": "1"}, {"size": "256"}, {"size": "64"}]}}}, "dtype": {"type": "DT_FLOAT"}}}, {"name": "StatefulPartitionedCall/sequential_1/resnet50v2_1/conv2_block2_1_bn_1/batchnorm/sub", "op": "Const", "attr": {"value": {"tensor": {"dtype": "DT_FLOAT", "tensorShape": {"dim": [{"size": "1"}, {"size": "1"}, {"size": "1"}, {"size": "64"}]}}}, "dtype": {"type": "DT_FLOAT"}}}, {"name": "StatefulPartitionedCall/sequential_1/resnet50v2_1/conv2_block2_2_pad_1/Const", "op": "Const", "attr": {"value": {"tensor": {"dtype": "DT_INT32", "tensorShape": {"dim": [{"size": "4"}, {"size": "2"}]}}}, "dtype": {"type": "DT_INT32"}}}, {"name": "StatefulPartitionedCall/sequential_1/resnet50v2_1/conv2_block2_2_conv_1/convolution/merged_input", "op": "Const", "attr": {"value": {"tensor": {"dtype": "DT_FLOAT", "tensorShape": {"dim": [{"size": "3"}, {"size": "3"}, {"size": "64"}, {"size": "64"}]}}}, "dtype": {"type": "DT_FLOAT"}}}, {"name": "StatefulPartitionedCall/sequential_1/resnet50v2_1/conv2_block2_2_bn_1/batchnorm/sub", "op": "Const", "attr": {"value": {"tensor": {"dtype": "DT_FLOAT", "tensorShape": {"dim": [{"size": "1"}, {"size": "1"}, {"size": "1"}, {"size": "64"}]}}}, "dtype": {"type": "DT_FLOAT"}}}, {"name": "StatefulPartitionedCall/sequential_1/resnet50v2_1/conv2_block2_3_conv_1/convolution/ReadVariableOp", "op": "Const", "attr": {"value": {"tensor": {"dtype": "DT_FLOAT", "tensorShape": {"dim": [{"size": "1"}, {"size": "1"}, {"size": "64"}, {"size": "256"}]}}}, "dtype": {"type": "DT_FLOAT"}}}, {"name": "StatefulPartitionedCall/sequential_1/resnet50v2_1/conv2_block2_3_conv_1/Squeeze", "op": "Const", "attr": {"value": {"tensor": {"dtype": "DT_FLOAT", "tensorShape": {"dim": [{"size": "256"}]}}}, "dtype": {"type": "DT_FLOAT"}}}, {"name": "StatefulPartitionedCall/sequential_1/resnet50v2_1/conv2_block3_preact_bn_1/batchnorm/mul", "op": "Const", "attr": {"value": {"tensor": {"dtype": "DT_FLOAT", "tensorShape": {"dim": [{"size": "1"}, {"size": "1"}, {"size": "1"}, {"size": "256"}]}}}, "dtype": {"type": "DT_FLOAT"}}}, {"name": "StatefulPartitionedCall/sequential_1/resnet50v2_1/conv2_block3_preact_bn_1/batchnorm/sub", "op": "Const", "attr": {"value": {"tensor": {"dtype": "DT_FLOAT", "tensorShape": {"dim": [{"size": "1"}, {"size": "1"}, {"size": "1"}, {"size": "256"}]}}}, "dtype": {"type": "DT_FLOAT"}}}, {"name": "StatefulPartitionedCall/sequential_1/resnet50v2_1/conv2_block3_1_conv_1/convolution/merged_input", "op": "Const", "attr": {"value": {"tensor": {"dtype": "DT_FLOAT", "tensorShape": {"dim": [{"size": "1"}, {"size": "1"}, {"size": "256"}, {"size": "64"}]}}}, "dtype": {"type": "DT_FLOAT"}}}, {"name": "StatefulPartitionedCall/sequential_1/resnet50v2_1/conv2_block3_1_bn_1/batchnorm/sub", "op": "Const", "attr": {"value": {"tensor": {"dtype": "DT_FLOAT", "tensorShape": {"dim": [{"size": "1"}, {"size": "1"}, {"size": "1"}, {"size": "64"}]}}}, "dtype": {"type": "DT_FLOAT"}}}, {"name": "StatefulPartitionedCall/sequential_1/resnet50v2_1/conv2_block3_2_pad_1/Const", "op": "Const", "attr": {"value": {"tensor": {"dtype": "DT_INT32", "tensorShape": {"dim": [{"size": "4"}, {"size": "2"}]}}}, "dtype": {"type": "DT_INT32"}}}, {"name": "StatefulPartitionedCall/sequential_1/resnet50v2_1/conv2_block3_2_conv_1/convolution/merged_input", "op": "Const", "attr": {"value": {"tensor": {"dtype": "DT_FLOAT", "tensorShape": {"dim": [{"size": "3"}, {"size": "3"}, {"size": "64"}, {"size": "64"}]}}}, "dtype": {"type": "DT_FLOAT"}}}, {"name": "StatefulPartitionedCall/sequential_1/resnet50v2_1/conv2_block3_2_bn_1/batchnorm/sub", "op": "Const", "attr": {"value": {"tensor": {"dtype": "DT_FLOAT", "tensorShape": {"dim": [{"size": "1"}, {"size": "1"}, {"size": "1"}, {"size": "64"}]}}}, "dtype": {"type": "DT_FLOAT"}}}, {"name": "StatefulPartitionedCall/sequential_1/resnet50v2_1/conv2_block3_3_conv_1/convolution/ReadVariableOp", "op": "Const", "attr": {"value": {"tensor": {"dtype": "DT_FLOAT", "tensorShape": {"dim": [{"size": "1"}, {"size": "1"}, {"size": "64"}, {"size": "256"}]}}}, "dtype": {"type": "DT_FLOAT"}}}, {"name": "StatefulPartitionedCall/sequential_1/resnet50v2_1/conv2_block3_3_conv_1/Squeeze", "op": "Const", "attr": {"value": {"tensor": {"dtype": "DT_FLOAT", "tensorShape": {"dim": [{"size": "256"}]}}}, "dtype": {"type": "DT_FLOAT"}}}, {"name": "StatefulPartitionedCall/sequential_1/resnet50v2_1/conv3_block1_preact_bn_1/batchnorm/mul", "op": "Const", "attr": {"value": {"tensor": {"dtype": "DT_FLOAT", "tensorShape": {"dim": [{"size": "1"}, {"size": "1"}, {"size": "1"}, {"size": "256"}]}}}, "dtype": {"type": "DT_FLOAT"}}}, {"name": "StatefulPartitionedCall/sequential_1/resnet50v2_1/conv3_block1_preact_bn_1/batchnorm/sub", "op": "Const", "attr": {"value": {"tensor": {"dtype": "DT_FLOAT", "tensorShape": {"dim": [{"size": "1"}, {"size": "1"}, {"size": "1"}, {"size": "256"}]}}}, "dtype": {"type": "DT_FLOAT"}}}, {"name": "StatefulPartitionedCall/sequential_1/resnet50v2_1/conv3_block1_1_conv_1/convolution/merged_input", "op": "Const", "attr": {"value": {"tensor": {"dtype": "DT_FLOAT", "tensorShape": {"dim": [{"size": "1"}, {"size": "1"}, {"size": "256"}, {"size": "128"}]}}}, "dtype": {"type": "DT_FLOAT"}}}, {"name": "StatefulPartitionedCall/sequential_1/resnet50v2_1/conv3_block1_1_bn_1/batchnorm/sub", "op": "Const", "attr": {"value": {"tensor": {"dtype": "DT_FLOAT", "tensorShape": {"dim": [{"size": "1"}, {"size": "1"}, {"size": "1"}, {"size": "128"}]}}}, "dtype": {"type": "DT_FLOAT"}}}, {"name": "StatefulPartitionedCall/sequential_1/resnet50v2_1/conv3_block1_2_pad_1/Const", "op": "Const", "attr": {"value": {"tensor": {"dtype": "DT_INT32", "tensorShape": {"dim": [{"size": "4"}, {"size": "2"}]}}}, "dtype": {"type": "DT_INT32"}}}, {"name": "StatefulPartitionedCall/sequential_1/resnet50v2_1/conv3_block1_2_conv_1/convolution/merged_input", "op": "Const", "attr": {"value": {"tensor": {"dtype": "DT_FLOAT", "tensorShape": {"dim": [{"size": "3"}, {"size": "3"}, {"size": "128"}, {"size": "128"}]}}}, "dtype": {"type": "DT_FLOAT"}}}, {"name": "StatefulPartitionedCall/sequential_1/resnet50v2_1/conv3_block1_2_bn_1/batchnorm/sub", "op": "Const", "attr": {"value": {"tensor": {"dtype": "DT_FLOAT", "tensorShape": {"dim": [{"size": "1"}, {"size": "1"}, {"size": "1"}, {"size": "128"}]}}}, "dtype": {"type": "DT_FLOAT"}}}, {"name": "StatefulPartitionedCall/sequential_1/resnet50v2_1/conv3_block1_3_conv_1/convolution/ReadVariableOp", "op": "Const", "attr": {"value": {"tensor": {"dtype": "DT_FLOAT", "tensorShape": {"dim": [{"size": "1"}, {"size": "1"}, {"size": "128"}, {"size": "512"}]}}}, "dtype": {"type": "DT_FLOAT"}}}, {"name": "StatefulPartitionedCall/sequential_1/resnet50v2_1/conv3_block1_3_conv_1/Squeeze", "op": "Const", "attr": {"value": {"tensor": {"dtype": "DT_FLOAT", "tensorShape": {"dim": [{"size": "512"}]}}}, "dtype": {"type": "DT_FLOAT"}}}, {"name": "StatefulPartitionedCall/sequential_1/resnet50v2_1/conv3_block2_preact_bn_1/batchnorm/mul", "op": "Const", "attr": {"value": {"tensor": {"dtype": "DT_FLOAT", "tensorShape": {"dim": [{"size": "1"}, {"size": "1"}, {"size": "1"}, {"size": "512"}]}}}, "dtype": {"type": "DT_FLOAT"}}}, {"name": "StatefulPartitionedCall/sequential_1/resnet50v2_1/conv3_block2_preact_bn_1/batchnorm/sub", "op": "Const", "attr": {"value": {"tensor": {"dtype": "DT_FLOAT", "tensorShape": {"dim": [{"size": "1"}, {"size": "1"}, {"size": "1"}, {"size": "512"}]}}}, "dtype": {"type": "DT_FLOAT"}}}, {"name": "StatefulPartitionedCall/sequential_1/resnet50v2_1/conv3_block2_1_conv_1/convolution/merged_input", "op": "Const", "attr": {"value": {"tensor": {"dtype": "DT_FLOAT", "tensorShape": {"dim": [{"size": "1"}, {"size": "1"}, {"size": "512"}, {"size": "128"}]}}}, "dtype": {"type": "DT_FLOAT"}}}, {"name": "StatefulPartitionedCall/sequential_1/resnet50v2_1/conv3_block2_1_bn_1/batchnorm/sub", "op": "Const", "attr": {"value": {"tensor": {"dtype": "DT_FLOAT", "tensorShape": {"dim": [{"size": "1"}, {"size": "1"}, {"size": "1"}, {"size": "128"}]}}}, "dtype": {"type": "DT_FLOAT"}}}, {"name": "StatefulPartitionedCall/sequential_1/resnet50v2_1/conv3_block2_2_pad_1/Const", "op": "Const", "attr": {"value": {"tensor": {"dtype": "DT_INT32", "tensorShape": {"dim": [{"size": "4"}, {"size": "2"}]}}}, "dtype": {"type": "DT_INT32"}}}, {"name": "StatefulPartitionedCall/sequential_1/resnet50v2_1/conv3_block2_2_conv_1/convolution/merged_input", "op": "Const", "attr": {"value": {"tensor": {"dtype": "DT_FLOAT", "tensorShape": {"dim": [{"size": "3"}, {"size": "3"}, {"size": "128"}, {"size": "128"}]}}}, "dtype": {"type": "DT_FLOAT"}}}, {"name": "StatefulPartitionedCall/sequential_1/resnet50v2_1/conv3_block2_2_bn_1/batchnorm/sub", "op": "Const", "attr": {"value": {"tensor": {"dtype": "DT_FLOAT", "tensorShape": {"dim": [{"size": "1"}, {"size": "1"}, {"size": "1"}, {"size": "128"}]}}}, "dtype": {"type": "DT_FLOAT"}}}, {"name": "StatefulPartitionedCall/sequential_1/resnet50v2_1/conv3_block2_3_conv_1/convolution/ReadVariableOp", "op": "Const", "attr": {"value": {"tensor": {"dtype": "DT_FLOAT", "tensorShape": {"dim": [{"size": "1"}, {"size": "1"}, {"size": "128"}, {"size": "512"}]}}}, "dtype": {"type": "DT_FLOAT"}}}, {"name": "StatefulPartitionedCall/sequential_1/resnet50v2_1/conv3_block2_3_conv_1/Squeeze", "op": "Const", "attr": {"value": {"tensor": {"dtype": "DT_FLOAT", "tensorShape": {"dim": [{"size": "512"}]}}}, "dtype": {"type": "DT_FLOAT"}}}, {"name": "StatefulPartitionedCall/sequential_1/resnet50v2_1/conv3_block3_preact_bn_1/batchnorm/mul", "op": "Const", "attr": {"value": {"tensor": {"dtype": "DT_FLOAT", "tensorShape": {"dim": [{"size": "1"}, {"size": "1"}, {"size": "1"}, {"size": "512"}]}}}, "dtype": {"type": "DT_FLOAT"}}}, {"name": "StatefulPartitionedCall/sequential_1/resnet50v2_1/conv3_block3_preact_bn_1/batchnorm/sub", "op": "Const", "attr": {"value": {"tensor": {"dtype": "DT_FLOAT", "tensorShape": {"dim": [{"size": "1"}, {"size": "1"}, {"size": "1"}, {"size": "512"}]}}}, "dtype": {"type": "DT_FLOAT"}}}, {"name": "StatefulPartitionedCall/sequential_1/resnet50v2_1/conv3_block3_1_conv_1/convolution/merged_input", "op": "Const", "attr": {"value": {"tensor": {"dtype": "DT_FLOAT", "tensorShape": {"dim": [{"size": "1"}, {"size": "1"}, {"size": "512"}, {"size": "128"}]}}}, "dtype": {"type": "DT_FLOAT"}}}, {"name": "StatefulPartitionedCall/sequential_1/resnet50v2_1/conv3_block3_1_bn_1/batchnorm/sub", "op": "Const", "attr": {"value": {"tensor": {"dtype": "DT_FLOAT", "tensorShape": {"dim": [{"size": "1"}, {"size": "1"}, {"size": "1"}, {"size": "128"}]}}}, "dtype": {"type": "DT_FLOAT"}}}, {"name": "StatefulPartitionedCall/sequential_1/resnet50v2_1/conv3_block3_2_pad_1/Const", "op": "Const", "attr": {"value": {"tensor": {"dtype": "DT_INT32", "tensorShape": {"dim": [{"size": "4"}, {"size": "2"}]}}}, "dtype": {"type": "DT_INT32"}}}, {"name": "StatefulPartitionedCall/sequential_1/resnet50v2_1/conv3_block3_2_conv_1/convolution/merged_input", "op": "Const", "attr": {"value": {"tensor": {"dtype": "DT_FLOAT", "tensorShape": {"dim": [{"size": "3"}, {"size": "3"}, {"size": "128"}, {"size": "128"}]}}}, "dtype": {"type": "DT_FLOAT"}}}, {"name": "StatefulPartitionedCall/sequential_1/resnet50v2_1/conv3_block3_2_bn_1/batchnorm/sub", "op": "Const", "attr": {"value": {"tensor": {"dtype": "DT_FLOAT", "tensorShape": {"dim": [{"size": "1"}, {"size": "1"}, {"size": "1"}, {"size": "128"}]}}}, "dtype": {"type": "DT_FLOAT"}}}, {"name": "StatefulPartitionedCall/sequential_1/resnet50v2_1/conv3_block3_3_conv_1/convolution/ReadVariableOp", "op": "Const", "attr": {"value": {"tensor": {"dtype": "DT_FLOAT", "tensorShape": {"dim": [{"size": "1"}, {"size": "1"}, {"size": "128"}, {"size": "512"}]}}}, "dtype": {"type": "DT_FLOAT"}}}, {"name": "StatefulPartitionedCall/sequential_1/resnet50v2_1/conv3_block3_3_conv_1/Squeeze", "op": "Const", "attr": {"value": {"tensor": {"dtype": "DT_FLOAT", "tensorShape": {"dim": [{"size": "512"}]}}}, "dtype": {"type": "DT_FLOAT"}}}, {"name": "StatefulPartitionedCall/sequential_1/resnet50v2_1/conv3_block4_preact_bn_1/batchnorm/mul", "op": "Const", "attr": {"value": {"tensor": {"dtype": "DT_FLOAT", "tensorShape": {"dim": [{"size": "1"}, {"size": "1"}, {"size": "1"}, {"size": "512"}]}}}, "dtype": {"type": "DT_FLOAT"}}}, {"name": "StatefulPartitionedCall/sequential_1/resnet50v2_1/conv3_block4_preact_bn_1/batchnorm/sub", "op": "Const", "attr": {"value": {"tensor": {"dtype": "DT_FLOAT", "tensorShape": {"dim": [{"size": "1"}, {"size": "1"}, {"size": "1"}, {"size": "512"}]}}}, "dtype": {"type": "DT_FLOAT"}}}, {"name": "StatefulPartitionedCall/sequential_1/resnet50v2_1/conv3_block4_1_conv_1/convolution/merged_input", "op": "Const", "attr": {"value": {"tensor": {"dtype": "DT_FLOAT", "tensorShape": {"dim": [{"size": "1"}, {"size": "1"}, {"size": "512"}, {"size": "128"}]}}}, "dtype": {"type": "DT_FLOAT"}}}, {"name": "StatefulPartitionedCall/sequential_1/resnet50v2_1/conv3_block4_1_bn_1/batchnorm/sub", "op": "Const", "attr": {"value": {"tensor": {"dtype": "DT_FLOAT", "tensorShape": {"dim": [{"size": "1"}, {"size": "1"}, {"size": "1"}, {"size": "128"}]}}}, "dtype": {"type": "DT_FLOAT"}}}, {"name": "StatefulPartitionedCall/sequential_1/resnet50v2_1/conv3_block4_2_pad_1/Const", "op": "Const", "attr": {"value": {"tensor": {"dtype": "DT_INT32", "tensorShape": {"dim": [{"size": "4"}, {"size": "2"}]}}}, "dtype": {"type": "DT_INT32"}}}, {"name": "StatefulPartitionedCall/sequential_1/resnet50v2_1/conv3_block4_2_conv_1/convolution/merged_input", "op": "Const", "attr": {"value": {"tensor": {"dtype": "DT_FLOAT", "tensorShape": {"dim": [{"size": "3"}, {"size": "3"}, {"size": "128"}, {"size": "128"}]}}}, "dtype": {"type": "DT_FLOAT"}}}, {"name": "StatefulPartitionedCall/sequential_1/resnet50v2_1/conv3_block4_2_bn_1/batchnorm/sub", "op": "Const", "attr": {"value": {"tensor": {"dtype": "DT_FLOAT", "tensorShape": {"dim": [{"size": "1"}, {"size": "1"}, {"size": "1"}, {"size": "128"}]}}}, "dtype": {"type": "DT_FLOAT"}}}, {"name": "StatefulPartitionedCall/sequential_1/resnet50v2_1/conv3_block4_3_conv_1/convolution/ReadVariableOp", "op": "Const", "attr": {"value": {"tensor": {"dtype": "DT_FLOAT", "tensorShape": {"dim": [{"size": "1"}, {"size": "1"}, {"size": "128"}, {"size": "512"}]}}}, "dtype": {"type": "DT_FLOAT"}}}, {"name": "StatefulPartitionedCall/sequential_1/resnet50v2_1/conv3_block4_3_conv_1/Squeeze", "op": "Const", "attr": {"value": {"tensor": {"dtype": "DT_FLOAT", "tensorShape": {"dim": [{"size": "512"}]}}}, "dtype": {"type": "DT_FLOAT"}}}, {"name": "StatefulPartitionedCall/sequential_1/resnet50v2_1/conv4_block1_preact_bn_1/batchnorm/mul", "op": "Const", "attr": {"value": {"tensor": {"dtype": "DT_FLOAT", "tensorShape": {"dim": [{"size": "1"}, {"size": "1"}, {"size": "1"}, {"size": "512"}]}}}, "dtype": {"type": "DT_FLOAT"}}}, {"name": "StatefulPartitionedCall/sequential_1/resnet50v2_1/conv4_block1_preact_bn_1/batchnorm/sub", "op": "Const", "attr": {"value": {"tensor": {"dtype": "DT_FLOAT", "tensorShape": {"dim": [{"size": "1"}, {"size": "1"}, {"size": "1"}, {"size": "512"}]}}}, "dtype": {"type": "DT_FLOAT"}}}, {"name": "StatefulPartitionedCall/sequential_1/resnet50v2_1/conv4_block1_1_conv_1/convolution/merged_input", "op": "Const", "attr": {"value": {"tensor": {"dtype": "DT_FLOAT", "tensorShape": {"dim": [{"size": "1"}, {"size": "1"}, {"size": "512"}, {"size": "256"}]}}}, "dtype": {"type": "DT_FLOAT"}}}, {"name": "StatefulPartitionedCall/sequential_1/resnet50v2_1/conv4_block1_1_bn_1/batchnorm/sub", "op": "Const", "attr": {"value": {"tensor": {"dtype": "DT_FLOAT", "tensorShape": {"dim": [{"size": "1"}, {"size": "1"}, {"size": "1"}, {"size": "256"}]}}}, "dtype": {"type": "DT_FLOAT"}}}, {"name": "StatefulPartitionedCall/sequential_1/resnet50v2_1/conv4_block1_2_pad_1/Const", "op": "Const", "attr": {"value": {"tensor": {"dtype": "DT_INT32", "tensorShape": {"dim": [{"size": "4"}, {"size": "2"}]}}}, "dtype": {"type": "DT_INT32"}}}, {"name": "StatefulPartitionedCall/sequential_1/resnet50v2_1/conv4_block1_2_conv_1/convolution/merged_input", "op": "Const", "attr": {"value": {"tensor": {"dtype": "DT_FLOAT", "tensorShape": {"dim": [{"size": "3"}, {"size": "3"}, {"size": "256"}, {"size": "256"}]}}}, "dtype": {"type": "DT_FLOAT"}}}, {"name": "StatefulPartitionedCall/sequential_1/resnet50v2_1/conv4_block1_2_bn_1/batchnorm/sub", "op": "Const", "attr": {"value": {"tensor": {"dtype": "DT_FLOAT", "tensorShape": {"dim": [{"size": "1"}, {"size": "1"}, {"size": "1"}, {"size": "256"}]}}}, "dtype": {"type": "DT_FLOAT"}}}, {"name": "StatefulPartitionedCall/sequential_1/resnet50v2_1/conv4_block1_3_conv_1/convolution/ReadVariableOp", "op": "Const", "attr": {"value": {"tensor": {"dtype": "DT_FLOAT", "tensorShape": {"dim": [{"size": "1"}, {"size": "1"}, {"size": "256"}, {"size": "1024"}]}}}, "dtype": {"type": "DT_FLOAT"}}}, {"name": "StatefulPartitionedCall/sequential_1/resnet50v2_1/conv4_block1_3_conv_1/Squeeze", "op": "Const", "attr": {"value": {"tensor": {"dtype": "DT_FLOAT", "tensorShape": {"dim": [{"size": "1024"}]}}}, "dtype": {"type": "DT_FLOAT"}}}, {"name": "StatefulPartitionedCall/sequential_1/resnet50v2_1/conv4_block2_preact_bn_1/batchnorm/mul", "op": "Const", "attr": {"value": {"tensor": {"dtype": "DT_FLOAT", "tensorShape": {"dim": [{"size": "1"}, {"size": "1"}, {"size": "1"}, {"size": "1024"}]}}}, "dtype": {"type": "DT_FLOAT"}}}, {"name": "StatefulPartitionedCall/sequential_1/resnet50v2_1/conv4_block2_preact_bn_1/batchnorm/sub", "op": "Const", "attr": {"value": {"tensor": {"dtype": "DT_FLOAT", "tensorShape": {"dim": [{"size": "1"}, {"size": "1"}, {"size": "1"}, {"size": "1024"}]}}}, "dtype": {"type": "DT_FLOAT"}}}, {"name": "StatefulPartitionedCall/sequential_1/resnet50v2_1/conv4_block2_1_conv_1/convolution/merged_input", "op": "Const", "attr": {"value": {"tensor": {"dtype": "DT_FLOAT", "tensorShape": {"dim": [{"size": "1"}, {"size": "1"}, {"size": "1024"}, {"size": "256"}]}}}, "dtype": {"type": "DT_FLOAT"}}}, {"name": "StatefulPartitionedCall/sequential_1/resnet50v2_1/conv4_block2_1_bn_1/batchnorm/sub", "op": "Const", "attr": {"value": {"tensor": {"dtype": "DT_FLOAT", "tensorShape": {"dim": [{"size": "1"}, {"size": "1"}, {"size": "1"}, {"size": "256"}]}}}, "dtype": {"type": "DT_FLOAT"}}}, {"name": "StatefulPartitionedCall/sequential_1/resnet50v2_1/conv4_block2_2_pad_1/Const", "op": "Const", "attr": {"value": {"tensor": {"dtype": "DT_INT32", "tensorShape": {"dim": [{"size": "4"}, {"size": "2"}]}}}, "dtype": {"type": "DT_INT32"}}}, {"name": "StatefulPartitionedCall/sequential_1/resnet50v2_1/conv4_block2_2_conv_1/convolution/merged_input", "op": "Const", "attr": {"value": {"tensor": {"dtype": "DT_FLOAT", "tensorShape": {"dim": [{"size": "3"}, {"size": "3"}, {"size": "256"}, {"size": "256"}]}}}, "dtype": {"type": "DT_FLOAT"}}}, {"name": "StatefulPartitionedCall/sequential_1/resnet50v2_1/conv4_block2_2_bn_1/batchnorm/sub", "op": "Const", "attr": {"value": {"tensor": {"dtype": "DT_FLOAT", "tensorShape": {"dim": [{"size": "1"}, {"size": "1"}, {"size": "1"}, {"size": "256"}]}}}, "dtype": {"type": "DT_FLOAT"}}}, {"name": "StatefulPartitionedCall/sequential_1/resnet50v2_1/conv4_block2_3_conv_1/convolution/ReadVariableOp", "op": "Const", "attr": {"value": {"tensor": {"dtype": "DT_FLOAT", "tensorShape": {"dim": [{"size": "1"}, {"size": "1"}, {"size": "256"}, {"size": "1024"}]}}}, "dtype": {"type": "DT_FLOAT"}}}, {"name": "StatefulPartitionedCall/sequential_1/resnet50v2_1/conv4_block2_3_conv_1/Squeeze", "op": "Const", "attr": {"value": {"tensor": {"dtype": "DT_FLOAT", "tensorShape": {"dim": [{"size": "1024"}]}}}, "dtype": {"type": "DT_FLOAT"}}}, {"name": "StatefulPartitionedCall/sequential_1/resnet50v2_1/conv4_block3_preact_bn_1/batchnorm/mul", "op": "Const", "attr": {"value": {"tensor": {"dtype": "DT_FLOAT", "tensorShape": {"dim": [{"size": "1"}, {"size": "1"}, {"size": "1"}, {"size": "1024"}]}}}, "dtype": {"type": "DT_FLOAT"}}}, {"name": "StatefulPartitionedCall/sequential_1/resnet50v2_1/conv4_block3_preact_bn_1/batchnorm/sub", "op": "Const", "attr": {"value": {"tensor": {"dtype": "DT_FLOAT", "tensorShape": {"dim": [{"size": "1"}, {"size": "1"}, {"size": "1"}, {"size": "1024"}]}}}, "dtype": {"type": "DT_FLOAT"}}}, {"name": "StatefulPartitionedCall/sequential_1/resnet50v2_1/conv4_block3_1_conv_1/convolution/merged_input", "op": "Const", "attr": {"value": {"tensor": {"dtype": "DT_FLOAT", "tensorShape": {"dim": [{"size": "1"}, {"size": "1"}, {"size": "1024"}, {"size": "256"}]}}}, "dtype": {"type": "DT_FLOAT"}}}, {"name": "StatefulPartitionedCall/sequential_1/resnet50v2_1/conv4_block3_1_bn_1/batchnorm/sub", "op": "Const", "attr": {"value": {"tensor": {"dtype": "DT_FLOAT", "tensorShape": {"dim": [{"size": "1"}, {"size": "1"}, {"size": "1"}, {"size": "256"}]}}}, "dtype": {"type": "DT_FLOAT"}}}, {"name": "StatefulPartitionedCall/sequential_1/resnet50v2_1/conv4_block3_2_pad_1/Const", "op": "Const", "attr": {"value": {"tensor": {"dtype": "DT_INT32", "tensorShape": {"dim": [{"size": "4"}, {"size": "2"}]}}}, "dtype": {"type": "DT_INT32"}}}, {"name": "StatefulPartitionedCall/sequential_1/resnet50v2_1/conv4_block3_2_conv_1/convolution/merged_input", "op": "Const", "attr": {"value": {"tensor": {"dtype": "DT_FLOAT", "tensorShape": {"dim": [{"size": "3"}, {"size": "3"}, {"size": "256"}, {"size": "256"}]}}}, "dtype": {"type": "DT_FLOAT"}}}, {"name": "StatefulPartitionedCall/sequential_1/resnet50v2_1/conv4_block3_2_bn_1/batchnorm/sub", "op": "Const", "attr": {"value": {"tensor": {"dtype": "DT_FLOAT", "tensorShape": {"dim": [{"size": "1"}, {"size": "1"}, {"size": "1"}, {"size": "256"}]}}}, "dtype": {"type": "DT_FLOAT"}}}, {"name": "StatefulPartitionedCall/sequential_1/resnet50v2_1/conv4_block3_3_conv_1/convolution/ReadVariableOp", "op": "Const", "attr": {"value": {"tensor": {"dtype": "DT_FLOAT", "tensorShape": {"dim": [{"size": "1"}, {"size": "1"}, {"size": "256"}, {"size": "1024"}]}}}, "dtype": {"type": "DT_FLOAT"}}}, {"name": "StatefulPartitionedCall/sequential_1/resnet50v2_1/conv4_block3_3_conv_1/Squeeze", "op": "Const", "attr": {"value": {"tensor": {"dtype": "DT_FLOAT", "tensorShape": {"dim": [{"size": "1024"}]}}}, "dtype": {"type": "DT_FLOAT"}}}, {"name": "StatefulPartitionedCall/sequential_1/resnet50v2_1/conv4_block4_preact_bn_1/batchnorm/mul", "op": "Const", "attr": {"value": {"tensor": {"dtype": "DT_FLOAT", "tensorShape": {"dim": [{"size": "1"}, {"size": "1"}, {"size": "1"}, {"size": "1024"}]}}}, "dtype": {"type": "DT_FLOAT"}}}, {"name": "StatefulPartitionedCall/sequential_1/resnet50v2_1/conv4_block4_preact_bn_1/batchnorm/sub", "op": "Const", "attr": {"value": {"tensor": {"dtype": "DT_FLOAT", "tensorShape": {"dim": [{"size": "1"}, {"size": "1"}, {"size": "1"}, {"size": "1024"}]}}}, "dtype": {"type": "DT_FLOAT"}}}, {"name": "StatefulPartitionedCall/sequential_1/resnet50v2_1/conv4_block4_1_conv_1/convolution/merged_input", "op": "Const", "attr": {"value": {"tensor": {"dtype": "DT_FLOAT", "tensorShape": {"dim": [{"size": "1"}, {"size": "1"}, {"size": "1024"}, {"size": "256"}]}}}, "dtype": {"type": "DT_FLOAT"}}}, {"name": "StatefulPartitionedCall/sequential_1/resnet50v2_1/conv4_block4_1_bn_1/batchnorm/sub", "op": "Const", "attr": {"value": {"tensor": {"dtype": "DT_FLOAT", "tensorShape": {"dim": [{"size": "1"}, {"size": "1"}, {"size": "1"}, {"size": "256"}]}}}, "dtype": {"type": "DT_FLOAT"}}}, {"name": "StatefulPartitionedCall/sequential_1/resnet50v2_1/conv4_block4_2_pad_1/Const", "op": "Const", "attr": {"value": {"tensor": {"dtype": "DT_INT32", "tensorShape": {"dim": [{"size": "4"}, {"size": "2"}]}}}, "dtype": {"type": "DT_INT32"}}}, {"name": "StatefulPartitionedCall/sequential_1/resnet50v2_1/conv4_block4_2_conv_1/convolution/merged_input", "op": "Const", "attr": {"value": {"tensor": {"dtype": "DT_FLOAT", "tensorShape": {"dim": [{"size": "3"}, {"size": "3"}, {"size": "256"}, {"size": "256"}]}}}, "dtype": {"type": "DT_FLOAT"}}}, {"name": "StatefulPartitionedCall/sequential_1/resnet50v2_1/conv4_block4_2_bn_1/batchnorm/sub", "op": "Const", "attr": {"value": {"tensor": {"dtype": "DT_FLOAT", "tensorShape": {"dim": [{"size": "1"}, {"size": "1"}, {"size": "1"}, {"size": "256"}]}}}, "dtype": {"type": "DT_FLOAT"}}}, {"name": "StatefulPartitionedCall/sequential_1/resnet50v2_1/conv4_block4_3_conv_1/convolution/ReadVariableOp", "op": "Const", "attr": {"value": {"tensor": {"dtype": "DT_FLOAT", "tensorShape": {"dim": [{"size": "1"}, {"size": "1"}, {"size": "256"}, {"size": "1024"}]}}}, "dtype": {"type": "DT_FLOAT"}}}, {"name": "StatefulPartitionedCall/sequential_1/resnet50v2_1/conv4_block4_3_conv_1/Squeeze", "op": "Const", "attr": {"value": {"tensor": {"dtype": "DT_FLOAT", "tensorShape": {"dim": [{"size": "1024"}]}}}, "dtype": {"type": "DT_FLOAT"}}}, {"name": "StatefulPartitionedCall/sequential_1/resnet50v2_1/conv4_block5_preact_bn_1/batchnorm/mul", "op": "Const", "attr": {"value": {"tensor": {"dtype": "DT_FLOAT", "tensorShape": {"dim": [{"size": "1"}, {"size": "1"}, {"size": "1"}, {"size": "1024"}]}}}, "dtype": {"type": "DT_FLOAT"}}}, {"name": "StatefulPartitionedCall/sequential_1/resnet50v2_1/conv4_block5_preact_bn_1/batchnorm/sub", "op": "Const", "attr": {"value": {"tensor": {"dtype": "DT_FLOAT", "tensorShape": {"dim": [{"size": "1"}, {"size": "1"}, {"size": "1"}, {"size": "1024"}]}}}, "dtype": {"type": "DT_FLOAT"}}}, {"name": "StatefulPartitionedCall/sequential_1/resnet50v2_1/conv4_block5_1_conv_1/convolution/merged_input", "op": "Const", "attr": {"value": {"tensor": {"dtype": "DT_FLOAT", "tensorShape": {"dim": [{"size": "1"}, {"size": "1"}, {"size": "1024"}, {"size": "256"}]}}}, "dtype": {"type": "DT_FLOAT"}}}, {"name": "StatefulPartitionedCall/sequential_1/resnet50v2_1/conv4_block5_1_bn_1/batchnorm/sub", "op": "Const", "attr": {"value": {"tensor": {"dtype": "DT_FLOAT", "tensorShape": {"dim": [{"size": "1"}, {"size": "1"}, {"size": "1"}, {"size": "256"}]}}}, "dtype": {"type": "DT_FLOAT"}}}, {"name": "StatefulPartitionedCall/sequential_1/resnet50v2_1/conv4_block5_2_pad_1/Const", "op": "Const", "attr": {"value": {"tensor": {"dtype": "DT_INT32", "tensorShape": {"dim": [{"size": "4"}, {"size": "2"}]}}}, "dtype": {"type": "DT_INT32"}}}, {"name": "StatefulPartitionedCall/sequential_1/resnet50v2_1/conv4_block5_2_conv_1/convolution/merged_input", "op": "Const", "attr": {"value": {"tensor": {"dtype": "DT_FLOAT", "tensorShape": {"dim": [{"size": "3"}, {"size": "3"}, {"size": "256"}, {"size": "256"}]}}}, "dtype": {"type": "DT_FLOAT"}}}, {"name": "StatefulPartitionedCall/sequential_1/resnet50v2_1/conv4_block5_2_bn_1/batchnorm/sub", "op": "Const", "attr": {"value": {"tensor": {"dtype": "DT_FLOAT", "tensorShape": {"dim": [{"size": "1"}, {"size": "1"}, {"size": "1"}, {"size": "256"}]}}}, "dtype": {"type": "DT_FLOAT"}}}, {"name": "StatefulPartitionedCall/sequential_1/resnet50v2_1/conv4_block5_3_conv_1/convolution/ReadVariableOp", "op": "Const", "attr": {"value": {"tensor": {"dtype": "DT_FLOAT", "tensorShape": {"dim": [{"size": "1"}, {"size": "1"}, {"size": "256"}, {"size": "1024"}]}}}, "dtype": {"type": "DT_FLOAT"}}}, {"name": "StatefulPartitionedCall/sequential_1/resnet50v2_1/conv4_block5_3_conv_1/Squeeze", "op": "Const", "attr": {"value": {"tensor": {"dtype": "DT_FLOAT", "tensorShape": {"dim": [{"size": "1024"}]}}}, "dtype": {"type": "DT_FLOAT"}}}, {"name": "StatefulPartitionedCall/sequential_1/resnet50v2_1/conv4_block6_preact_bn_1/batchnorm/mul", "op": "Const", "attr": {"value": {"tensor": {"dtype": "DT_FLOAT", "tensorShape": {"dim": [{"size": "1"}, {"size": "1"}, {"size": "1"}, {"size": "1024"}]}}}, "dtype": {"type": "DT_FLOAT"}}}, {"name": "StatefulPartitionedCall/sequential_1/resnet50v2_1/conv4_block6_preact_bn_1/batchnorm/sub", "op": "Const", "attr": {"value": {"tensor": {"dtype": "DT_FLOAT", "tensorShape": {"dim": [{"size": "1"}, {"size": "1"}, {"size": "1"}, {"size": "1024"}]}}}, "dtype": {"type": "DT_FLOAT"}}}, {"name": "StatefulPartitionedCall/sequential_1/resnet50v2_1/conv4_block6_1_conv_1/convolution/merged_input", "op": "Const", "attr": {"value": {"tensor": {"dtype": "DT_FLOAT", "tensorShape": {"dim": [{"size": "1"}, {"size": "1"}, {"size": "1024"}, {"size": "256"}]}}}, "dtype": {"type": "DT_FLOAT"}}}, {"name": "StatefulPartitionedCall/sequential_1/resnet50v2_1/conv4_block6_1_bn_1/batchnorm/sub", "op": "Const", "attr": {"value": {"tensor": {"dtype": "DT_FLOAT", "tensorShape": {"dim": [{"size": "1"}, {"size": "1"}, {"size": "1"}, {"size": "256"}]}}}, "dtype": {"type": "DT_FLOAT"}}}, {"name": "StatefulPartitionedCall/sequential_1/resnet50v2_1/conv4_block6_2_pad_1/Const", "op": "Const", "attr": {"value": {"tensor": {"dtype": "DT_INT32", "tensorShape": {"dim": [{"size": "4"}, {"size": "2"}]}}}, "dtype": {"type": "DT_INT32"}}}, {"name": "StatefulPartitionedCall/sequential_1/resnet50v2_1/conv4_block6_2_conv_1/convolution/merged_input", "op": "Const", "attr": {"value": {"tensor": {"dtype": "DT_FLOAT", "tensorShape": {"dim": [{"size": "3"}, {"size": "3"}, {"size": "256"}, {"size": "256"}]}}}, "dtype": {"type": "DT_FLOAT"}}}, {"name": "StatefulPartitionedCall/sequential_1/resnet50v2_1/conv4_block6_2_bn_1/batchnorm/sub", "op": "Const", "attr": {"value": {"tensor": {"dtype": "DT_FLOAT", "tensorShape": {"dim": [{"size": "1"}, {"size": "1"}, {"size": "1"}, {"size": "256"}]}}}, "dtype": {"type": "DT_FLOAT"}}}, {"name": "StatefulPartitionedCall/sequential_1/resnet50v2_1/conv4_block6_3_conv_1/convolution/ReadVariableOp", "op": "Const", "attr": {"value": {"tensor": {"dtype": "DT_FLOAT", "tensorShape": {"dim": [{"size": "1"}, {"size": "1"}, {"size": "256"}, {"size": "1024"}]}}}, "dtype": {"type": "DT_FLOAT"}}}, {"name": "StatefulPartitionedCall/sequential_1/resnet50v2_1/conv4_block6_3_conv_1/Squeeze", "op": "Const", "attr": {"value": {"tensor": {"dtype": "DT_FLOAT", "tensorShape": {"dim": [{"size": "1024"}]}}}, "dtype": {"type": "DT_FLOAT"}}}, {"name": "StatefulPartitionedCall/sequential_1/resnet50v2_1/conv5_block1_preact_bn_1/batchnorm/mul", "op": "Const", "attr": {"value": {"tensor": {"dtype": "DT_FLOAT", "tensorShape": {"dim": [{"size": "1"}, {"size": "1"}, {"size": "1"}, {"size": "1024"}]}}}, "dtype": {"type": "DT_FLOAT"}}}, {"name": "StatefulPartitionedCall/sequential_1/resnet50v2_1/conv5_block1_preact_bn_1/batchnorm/sub", "op": "Const", "attr": {"value": {"tensor": {"dtype": "DT_FLOAT", "tensorShape": {"dim": [{"size": "1"}, {"size": "1"}, {"size": "1"}, {"size": "1024"}]}}}, "dtype": {"type": "DT_FLOAT"}}}, {"name": "StatefulPartitionedCall/sequential_1/resnet50v2_1/conv5_block1_1_conv_1/convolution/merged_input", "op": "Const", "attr": {"value": {"tensor": {"dtype": "DT_FLOAT", "tensorShape": {"dim": [{"size": "1"}, {"size": "1"}, {"size": "1024"}, {"size": "512"}]}}}, "dtype": {"type": "DT_FLOAT"}}}, {"name": "StatefulPartitionedCall/sequential_1/resnet50v2_1/conv5_block1_1_bn_1/batchnorm/sub", "op": "Const", "attr": {"value": {"tensor": {"dtype": "DT_FLOAT", "tensorShape": {"dim": [{"size": "1"}, {"size": "1"}, {"size": "1"}, {"size": "512"}]}}}, "dtype": {"type": "DT_FLOAT"}}}, {"name": "StatefulPartitionedCall/sequential_1/resnet50v2_1/conv5_block1_2_pad_1/Const", "op": "Const", "attr": {"value": {"tensor": {"dtype": "DT_INT32", "tensorShape": {"dim": [{"size": "4"}, {"size": "2"}]}}}, "dtype": {"type": "DT_INT32"}}}, {"name": "StatefulPartitionedCall/sequential_1/resnet50v2_1/conv5_block1_2_conv_1/convolution/merged_input", "op": "Const", "attr": {"value": {"tensor": {"dtype": "DT_FLOAT", "tensorShape": {"dim": [{"size": "3"}, {"size": "3"}, {"size": "512"}, {"size": "512"}]}}}, "dtype": {"type": "DT_FLOAT"}}}, {"name": "StatefulPartitionedCall/sequential_1/resnet50v2_1/conv5_block1_2_bn_1/batchnorm/sub", "op": "Const", "attr": {"value": {"tensor": {"dtype": "DT_FLOAT", "tensorShape": {"dim": [{"size": "1"}, {"size": "1"}, {"size": "1"}, {"size": "512"}]}}}, "dtype": {"type": "DT_FLOAT"}}}, {"name": "StatefulPartitionedCall/sequential_1/resnet50v2_1/conv5_block1_3_conv_1/convolution/ReadVariableOp", "op": "Const", "attr": {"value": {"tensor": {"dtype": "DT_FLOAT", "tensorShape": {"dim": [{"size": "1"}, {"size": "1"}, {"size": "512"}, {"size": "2048"}]}}}, "dtype": {"type": "DT_FLOAT"}}}, {"name": "StatefulPartitionedCall/sequential_1/resnet50v2_1/conv5_block1_3_conv_1/Squeeze", "op": "Const", "attr": {"value": {"tensor": {"dtype": "DT_FLOAT", "tensorShape": {"dim": [{"size": "2048"}]}}}, "dtype": {"type": "DT_FLOAT"}}}, {"name": "StatefulPartitionedCall/sequential_1/resnet50v2_1/conv5_block2_preact_bn_1/batchnorm/mul", "op": "Const", "attr": {"value": {"tensor": {"dtype": "DT_FLOAT", "tensorShape": {"dim": [{"size": "1"}, {"size": "1"}, {"size": "1"}, {"size": "2048"}]}}}, "dtype": {"type": "DT_FLOAT"}}}, {"name": "StatefulPartitionedCall/sequential_1/resnet50v2_1/conv5_block2_preact_bn_1/batchnorm/sub", "op": "Const", "attr": {"value": {"tensor": {"dtype": "DT_FLOAT", "tensorShape": {"dim": [{"size": "1"}, {"size": "1"}, {"size": "1"}, {"size": "2048"}]}}}, "dtype": {"type": "DT_FLOAT"}}}, {"name": "StatefulPartitionedCall/sequential_1/resnet50v2_1/conv5_block2_1_conv_1/convolution/merged_input", "op": "Const", "attr": {"value": {"tensor": {"dtype": "DT_FLOAT", "tensorShape": {"dim": [{"size": "1"}, {"size": "1"}, {"size": "2048"}, {"size": "512"}]}}}, "dtype": {"type": "DT_FLOAT"}}}, {"name": "StatefulPartitionedCall/sequential_1/resnet50v2_1/conv5_block2_1_bn_1/batchnorm/sub", "op": "Const", "attr": {"value": {"tensor": {"dtype": "DT_FLOAT", "tensorShape": {"dim": [{"size": "1"}, {"size": "1"}, {"size": "1"}, {"size": "512"}]}}}, "dtype": {"type": "DT_FLOAT"}}}, {"name": "StatefulPartitionedCall/sequential_1/resnet50v2_1/conv5_block2_2_pad_1/Const", "op": "Const", "attr": {"value": {"tensor": {"dtype": "DT_INT32", "tensorShape": {"dim": [{"size": "4"}, {"size": "2"}]}}}, "dtype": {"type": "DT_INT32"}}}, {"name": "StatefulPartitionedCall/sequential_1/resnet50v2_1/conv5_block2_2_conv_1/convolution/merged_input", "op": "Const", "attr": {"value": {"tensor": {"dtype": "DT_FLOAT", "tensorShape": {"dim": [{"size": "3"}, {"size": "3"}, {"size": "512"}, {"size": "512"}]}}}, "dtype": {"type": "DT_FLOAT"}}}, {"name": "StatefulPartitionedCall/sequential_1/resnet50v2_1/conv5_block2_2_bn_1/batchnorm/sub", "op": "Const", "attr": {"value": {"tensor": {"dtype": "DT_FLOAT", "tensorShape": {"dim": [{"size": "1"}, {"size": "1"}, {"size": "1"}, {"size": "512"}]}}}, "dtype": {"type": "DT_FLOAT"}}}, {"name": "StatefulPartitionedCall/sequential_1/resnet50v2_1/conv5_block2_3_conv_1/convolution/ReadVariableOp", "op": "Const", "attr": {"value": {"tensor": {"dtype": "DT_FLOAT", "tensorShape": {"dim": [{"size": "1"}, {"size": "1"}, {"size": "512"}, {"size": "2048"}]}}}, "dtype": {"type": "DT_FLOAT"}}}, {"name": "StatefulPartitionedCall/sequential_1/resnet50v2_1/conv5_block2_3_conv_1/Squeeze", "op": "Const", "attr": {"value": {"tensor": {"dtype": "DT_FLOAT", "tensorShape": {"dim": [{"size": "2048"}]}}}, "dtype": {"type": "DT_FLOAT"}}}, {"name": "StatefulPartitionedCall/sequential_1/resnet50v2_1/conv5_block3_preact_bn_1/batchnorm/mul", "op": "Const", "attr": {"value": {"tensor": {"dtype": "DT_FLOAT", "tensorShape": {"dim": [{"size": "1"}, {"size": "1"}, {"size": "1"}, {"size": "2048"}]}}}, "dtype": {"type": "DT_FLOAT"}}}, {"name": "StatefulPartitionedCall/sequential_1/resnet50v2_1/conv5_block3_preact_bn_1/batchnorm/sub", "op": "Const", "attr": {"value": {"tensor": {"dtype": "DT_FLOAT", "tensorShape": {"dim": [{"size": "1"}, {"size": "1"}, {"size": "1"}, {"size": "2048"}]}}}, "dtype": {"type": "DT_FLOAT"}}}, {"name": "StatefulPartitionedCall/sequential_1/resnet50v2_1/conv5_block3_1_conv_1/convolution/merged_input", "op": "Const", "attr": {"value": {"tensor": {"dtype": "DT_FLOAT", "tensorShape": {"dim": [{"size": "1"}, {"size": "1"}, {"size": "2048"}, {"size": "512"}]}}}, "dtype": {"type": "DT_FLOAT"}}}, {"name": "StatefulPartitionedCall/sequential_1/resnet50v2_1/conv5_block3_1_bn_1/batchnorm/sub", "op": "Const", "attr": {"value": {"tensor": {"dtype": "DT_FLOAT", "tensorShape": {"dim": [{"size": "1"}, {"size": "1"}, {"size": "1"}, {"size": "512"}]}}}, "dtype": {"type": "DT_FLOAT"}}}, {"name": "StatefulPartitionedCall/sequential_1/resnet50v2_1/conv5_block3_2_pad_1/Const", "op": "Const", "attr": {"value": {"tensor": {"dtype": "DT_INT32", "tensorShape": {"dim": [{"size": "4"}, {"size": "2"}]}}}, "dtype": {"type": "DT_INT32"}}}, {"name": "StatefulPartitionedCall/sequential_1/resnet50v2_1/conv5_block3_2_conv_1/convolution/merged_input", "op": "Const", "attr": {"value": {"tensor": {"dtype": "DT_FLOAT", "tensorShape": {"dim": [{"size": "3"}, {"size": "3"}, {"size": "512"}, {"size": "512"}]}}}, "dtype": {"type": "DT_FLOAT"}}}, {"name": "StatefulPartitionedCall/sequential_1/resnet50v2_1/conv5_block3_2_bn_1/batchnorm/sub", "op": "Const", "attr": {"value": {"tensor": {"dtype": "DT_FLOAT", "tensorShape": {"dim": [{"size": "1"}, {"size": "1"}, {"size": "1"}, {"size": "512"}]}}}, "dtype": {"type": "DT_FLOAT"}}}, {"name": "StatefulPartitionedCall/sequential_1/resnet50v2_1/conv5_block3_3_conv_1/convolution/ReadVariableOp", "op": "Const", "attr": {"value": {"tensor": {"dtype": "DT_FLOAT", "tensorShape": {"dim": [{"size": "1"}, {"size": "1"}, {"size": "512"}, {"size": "2048"}]}}}, "dtype": {"type": "DT_FLOAT"}}}, {"name": "StatefulPartitionedCall/sequential_1/resnet50v2_1/conv5_block3_3_conv_1/Squeeze", "op": "Const", "attr": {"value": {"tensor": {"dtype": "DT_FLOAT", "tensorShape": {"dim": [{"size": "2048"}]}}}, "dtype": {"type": "DT_FLOAT"}}}, {"name": "StatefulPartitionedCall/sequential_1/resnet50v2_1/post_bn_1/batchnorm/mul", "op": "Const", "attr": {"value": {"tensor": {"dtype": "DT_FLOAT", "tensorShape": {"dim": [{"size": "1"}, {"size": "1"}, {"size": "1"}, {"size": "2048"}]}}}, "dtype": {"type": "DT_FLOAT"}}}, {"name": "StatefulPartitionedCall/sequential_1/resnet50v2_1/post_bn_1/batchnorm/sub", "op": "Const", "attr": {"value": {"tensor": {"dtype": "DT_FLOAT", "tensorShape": {"dim": [{"size": "1"}, {"size": "1"}, {"size": "1"}, {"size": "2048"}]}}}, "dtype": {"type": "DT_FLOAT"}}}, {"name": "StatefulPartitionedCall/sequential_1/global_average_pooling2d_1/Mean/reduction_indices", "op": "Const", "attr": {"value": {"tensor": {"dtype": "DT_INT32", "tensorShape": {"dim": [{"size": "2"}]}}}, "dtype": {"type": "DT_INT32"}}}, {"name": "StatefulPartitionedCall/sequential_1/dense_1/Cast/ReadVariableOp", "op": "Const", "attr": {"value": {"tensor": {"dtype": "DT_FLOAT", "tensorShape": {"dim": [{"size": "2048"}, {"size": "512"}]}}}, "dtype": {"type": "DT_FLOAT"}}}, {"name": "StatefulPartitionedCall/sequential_1/dense_1/BiasAdd/ReadVariableOp", "op": "Const", "attr": {"value": {"tensor": {"dtype": "DT_FLOAT", "tensorShape": {"dim": [{"size": "512"}]}}}, "dtype": {"type": "DT_FLOAT"}}}, {"name": "StatefulPartitionedCall/sequential_1/batch_normalization_1/batchnorm/mul", "op": "Const", "attr": {"value": {"tensor": {"dtype": "DT_FLOAT", "tensorShape": {"dim": [{"size": "512"}]}}}, "dtype": {"type": "DT_FLOAT"}}}, {"name": "StatefulPartitionedCall/sequential_1/batch_normalization_1/batchnorm/sub", "op": "Const", "attr": {"value": {"tensor": {"dtype": "DT_FLOAT", "tensorShape": {"dim": [{"size": "512"}]}}}, "dtype": {"type": "DT_FLOAT"}}}, {"name": "StatefulPartitionedCall/sequential_1/dense_1_2/Cast/ReadVariableOp", "op": "Const", "attr": {"value": {"tensor": {"dtype": "DT_FLOAT", "tensorShape": {"dim": [{"size": "512"}, {"size": "256"}]}}}, "dtype": {"type": "DT_FLOAT"}}}, {"name": "StatefulPartitionedCall/sequential_1/dense_1_2/BiasAdd/ReadVariableOp", "op": "Const", "attr": {"value": {"tensor": {"dtype": "DT_FLOAT", "tensorShape": {"dim": [{"size": "256"}]}}}, "dtype": {"type": "DT_FLOAT"}}}, {"name": "StatefulPartitionedCall/sequential_1/batch_normalization_1_2/batchnorm/mul", "op": "Const", "attr": {"value": {"tensor": {"dtype": "DT_FLOAT", "tensorShape": {"dim": [{"size": "256"}]}}}, "dtype": {"type": "DT_FLOAT"}}}, {"name": "StatefulPartitionedCall/sequential_1/batch_normalization_1_2/batchnorm/sub", "op": "Const", "attr": {"value": {"tensor": {"dtype": "DT_FLOAT", "tensorShape": {"dim": [{"size": "256"}]}}}, "dtype": {"type": "DT_FLOAT"}}}, {"name": "StatefulPartitionedCall/sequential_1/dense_2_1/Cast/ReadVariableOp", "op": "Const", "attr": {"value": {"tensor": {"dtype": "DT_FLOAT", "tensorShape": {"dim": [{"size": "256"}, {"size": "5"}]}}}, "dtype": {"type": "DT_FLOAT"}}}, {"name": "StatefulPartitionedCall/sequential_1/dense_2_1/BiasAdd/ReadVariableOp", "op": "Const", "attr": {"value": {"tensor": {"dtype": "DT_FLOAT", "tensorShape": {"dim": [{"size": "5"}]}}}, "dtype": {"type": "DT_FLOAT"}}}, {"name": "input_layer_1", "op": "Placeholder", "attr": {"shape": {"shape": {"dim": [{"size": "-1"}, {"size": "224"}, {"size": "224"}, {"size": "3"}]}}, "dtype": {"type": "DT_FLOAT"}}}, {"name": "StatefulPartitionedCall/sequential_1/resnet50v2_1/conv1_pad_1/Pad", "op": "Pad", "input": ["input_layer_1", "StatefulPartitionedCall/sequential_1/resnet50v2_1/conv1_pad_1/Const"], "attr": {"Tpaddings": {"type": "DT_INT32"}, "T": {"type": "DT_FLOAT"}}}, {"name": "StatefulPartitionedCall/sequential_1/resnet50v2_1/conv1_conv_1/BiasAdd", "op": "_FusedConv2D", "input": ["StatefulPartitionedCall/sequential_1/resnet50v2_1/conv1_pad_1/Pad", "StatefulPartitionedCall/sequential_1/resnet50v2_1/conv1_conv_1/convolution/ReadVariableOp", "StatefulPartitionedCall/sequential_1/resnet50v2_1/conv1_conv_1/Squeeze"], "device": "/device:CPU:0", "attr": {"num_host_args": {"i": "0"}, "data_format": {"s": "TkhXQw=="}, "filter_format": {"s": "SFdJTw=="}, "strides": {"list": {"i": ["1", "2", "2", "1"]}}, "num_args": {"i": "1"}, "fused_ops": {"list": {"s": ["Qmlhc0FkZA=="]}}, "TArgs": {"list": {"type": ["DT_FLOAT"]}}, "padding": {"s": "VkFMSUQ="}, "use_cudnn_on_gpu": {"b": true}, "leakyrelu_alpha": {"f": 0.2}, "epsilon": {"f": 0.0}, "T": {"type": "DT_FLOAT"}, "explicit_paddings": {"list": {}}, "dilations": {"list": {"i": ["1", "1", "1", "1"]}}}}, {"name": "StatefulPartitionedCall/sequential_1/resnet50v2_1/pool1_pad_1/Pad", "op": "Pad", "input": ["StatefulPartitionedCall/sequential_1/resnet50v2_1/conv1_conv_1/BiasAdd", "StatefulPartitionedCall/sequential_1/resnet50v2_1/pool1_pad_1/Const"], "attr": {"Tpaddings": {"type": "DT_INT32"}, "T": {"type": "DT_FLOAT"}}}, {"name": "StatefulPartitionedCall/sequential_1/resnet50v2_1/pool1_pool_1/MaxPool2d", "op": "MaxPool", "input": ["StatefulPartitionedCall/sequential_1/resnet50v2_1/pool1_pad_1/Pad"], "attr": {"ksize": {"list": {"i": ["1", "3", "3", "1"]}}, "data_format": {"s": "TkhXQw=="}, "T": {"type": "DT_FLOAT"}, "explicit_paddings": {"list": {}}, "padding": {"s": "VkFMSUQ="}, "strides": {"list": {"i": ["1", "2", "2", "1"]}}}}, {"name": "StatefulPartitionedCall/sequential_1/resnet50v2_1/conv2_block1_preact_bn_1/batchnorm/mul_1", "op": "Mul", "input": ["StatefulPartitionedCall/sequential_1/resnet50v2_1/pool1_pool_1/MaxPool2d", "StatefulPartitionedCall/sequential_1/resnet50v2_1/conv2_block1_preact_bn_1/batchnorm/mul"], "attr": {"T": {"type": "DT_FLOAT"}}}, {"name": "StatefulPartitionedCall/sequential_1/resnet50v2_1/conv2_block1_preact_bn_1/batchnorm/add_1", "op": "AddV2", "input": ["StatefulPartitionedCall/sequential_1/resnet50v2_1/conv2_block1_preact_bn_1/batchnorm/mul_1", "StatefulPartitionedCall/sequential_1/resnet50v2_1/conv2_block1_preact_bn_1/batchnorm/sub"], "attr": {"T": {"type": "DT_FLOAT"}}}, {"name": "StatefulPartitionedCall/sequential_1/resnet50v2_1/conv2_block1_preact_relu_1/Relu", "op": "Relu", "input": ["StatefulPartitionedCall/sequential_1/resnet50v2_1/conv2_block1_preact_bn_1/batchnorm/add_1"], "attr": {"T": {"type": "DT_FLOAT"}}}, {"name": "StatefulPartitionedCall/sequential_1/resnet50v2_1/conv2_block1_0_conv_1/BiasAdd", "op": "_FusedConv2D", "input": ["StatefulPartitionedCall/sequential_1/resnet50v2_1/conv2_block1_preact_relu_1/Relu", "StatefulPartitionedCall/sequential_1/resnet50v2_1/conv2_block1_0_conv_1/convolution/ReadVariableOp", "StatefulPartitionedCall/sequential_1/resnet50v2_1/conv2_block1_0_conv_1/Squeeze"], "device": "/device:CPU:0", "attr": {"num_host_args": {"i": "0"}, "data_format": {"s": "TkhXQw=="}, "filter_format": {"s": "SFdJTw=="}, "strides": {"list": {"i": ["1", "1", "1", "1"]}}, "num_args": {"i": "1"}, "fused_ops": {"list": {"s": ["Qmlhc0FkZA=="]}}, "TArgs": {"list": {"type": ["DT_FLOAT"]}}, "padding": {"s": "VkFMSUQ="}, "use_cudnn_on_gpu": {"b": true}, "leakyrelu_alpha": {"f": 0.2}, "epsilon": {"f": 0.0}, "T": {"type": "DT_FLOAT"}, "explicit_paddings": {"list": {}}, "dilations": {"list": {"i": ["1", "1", "1", "1"]}}}}, {"name": "StatefulPartitionedCall/sequential_1/resnet50v2_1/conv2_block1_1_relu_1/Relu", "op": "_FusedConv2D", "input": ["StatefulPartitionedCall/sequential_1/resnet50v2_1/conv2_block1_preact_relu_1/Relu", "StatefulPartitionedCall/sequential_1/resnet50v2_1/conv2_block1_1_conv_1/convolution/merged_input", "StatefulPartitionedCall/sequential_1/resnet50v2_1/conv2_block1_1_bn_1/batchnorm/sub"], "device": "/device:CPU:0", "attr": {"num_host_args": {"i": "0"}, "data_format": {"s": "TkhXQw=="}, "filter_format": {"s": "SFdJTw=="}, "strides": {"list": {"i": ["1", "1", "1", "1"]}}, "num_args": {"i": "1"}, "fused_ops": {"list": {"s": ["Qmlhc0FkZA==", "UmVsdQ=="]}}, "TArgs": {"list": {"type": ["DT_FLOAT"]}}, "padding": {"s": "VkFMSUQ="}, "use_cudnn_on_gpu": {"b": true}, "leakyrelu_alpha": {"f": 0.2}, "epsilon": {"f": 0.0}, "T": {"type": "DT_FLOAT"}, "explicit_paddings": {"list": {}}, "dilations": {"list": {"i": ["1", "1", "1", "1"]}}}}, {"name": "StatefulPartitionedCall/sequential_1/resnet50v2_1/conv2_block1_2_pad_1/Pad", "op": "Pad", "input": ["StatefulPartitionedCall/sequential_1/resnet50v2_1/conv2_block1_1_relu_1/Relu", "StatefulPartitionedCall/sequential_1/resnet50v2_1/conv2_block1_2_pad_1/Const"], "attr": {"Tpaddings": {"type": "DT_INT32"}, "T": {"type": "DT_FLOAT"}}}, {"name": "StatefulPartitionedCall/sequential_1/resnet50v2_1/conv2_block1_2_relu_1/Relu", "op": "_FusedConv2D", "input": ["StatefulPartitionedCall/sequential_1/resnet50v2_1/conv2_block1_2_pad_1/Pad", "StatefulPartitionedCall/sequential_1/resnet50v2_1/conv2_block1_2_conv_1/convolution/merged_input", "StatefulPartitionedCall/sequential_1/resnet50v2_1/conv2_block1_2_bn_1/batchnorm/sub"], "device": "/device:CPU:0", "attr": {"num_host_args": {"i": "0"}, "data_format": {"s": "TkhXQw=="}, "filter_format": {"s": "SFdJTw=="}, "strides": {"list": {"i": ["1", "1", "1", "1"]}}, "num_args": {"i": "1"}, "fused_ops": {"list": {"s": ["Qmlhc0FkZA==", "UmVsdQ=="]}}, "TArgs": {"list": {"type": ["DT_FLOAT"]}}, "padding": {"s": "VkFMSUQ="}, "use_cudnn_on_gpu": {"b": true}, "leakyrelu_alpha": {"f": 0.2}, "epsilon": {"f": 0.0}, "T": {"type": "DT_FLOAT"}, "explicit_paddings": {"list": {}}, "dilations": {"list": {"i": ["1", "1", "1", "1"]}}}}, {"name": "StatefulPartitionedCall/sequential_1/resnet50v2_1/conv2_block1_3_conv_1/BiasAdd", "op": "_FusedConv2D", "input": ["StatefulPartitionedCall/sequential_1/resnet50v2_1/conv2_block1_2_relu_1/Relu", "StatefulPartitionedCall/sequential_1/resnet50v2_1/conv2_block1_3_conv_1/convolution/ReadVariableOp", "StatefulPartitionedCall/sequential_1/resnet50v2_1/conv2_block1_3_conv_1/Squeeze"], "device": "/device:CPU:0", "attr": {"num_host_args": {"i": "0"}, "data_format": {"s": "TkhXQw=="}, "filter_format": {"s": "SFdJTw=="}, "fused_ops": {"list": {"s": ["Qmlhc0FkZA=="]}}, "num_args": {"i": "1"}, "strides": {"list": {"i": ["1", "1", "1", "1"]}}, "TArgs": {"list": {"type": ["DT_FLOAT"]}}, "padding": {"s": "VkFMSUQ="}, "use_cudnn_on_gpu": {"b": true}, "leakyrelu_alpha": {"f": 0.2}, "epsilon": {"f": 0.0}, "T": {"type": "DT_FLOAT"}, "explicit_paddings": {"list": {}}, "dilations": {"list": {"i": ["1", "1", "1", "1"]}}}}, {"name": "StatefulPartitionedCall/sequential_1/resnet50v2_1/conv2_block1_out_1/Add", "op": "AddV2", "input": ["StatefulPartitionedCall/sequential_1/resnet50v2_1/conv2_block1_0_conv_1/BiasAdd", "StatefulPartitionedCall/sequential_1/resnet50v2_1/conv2_block1_3_conv_1/BiasAdd"], "attr": {"T": {"type": "DT_FLOAT"}}}, {"name": "StatefulPartitionedCall/sequential_1/resnet50v2_1/conv2_block2_preact_bn_1/batchnorm/mul_1", "op": "Mul", "input": ["StatefulPartitionedCall/sequential_1/resnet50v2_1/conv2_block1_out_1/Add", "StatefulPartitionedCall/sequential_1/resnet50v2_1/conv2_block2_preact_bn_1/batchnorm/mul"], "attr": {"T": {"type": "DT_FLOAT"}}}, {"name": "StatefulPartitionedCall/sequential_1/resnet50v2_1/conv2_block2_preact_bn_1/batchnorm/add_1", "op": "AddV2", "input": ["StatefulPartitionedCall/sequential_1/resnet50v2_1/conv2_block2_preact_bn_1/batchnorm/mul_1", "StatefulPartitionedCall/sequential_1/resnet50v2_1/conv2_block2_preact_bn_1/batchnorm/sub"], "attr": {"T": {"type": "DT_FLOAT"}}}, {"name": "StatefulPartitionedCall/sequential_1/resnet50v2_1/conv2_block2_preact_relu_1/Relu", "op": "Relu", "input": ["StatefulPartitionedCall/sequential_1/resnet50v2_1/conv2_block2_preact_bn_1/batchnorm/add_1"], "attr": {"T": {"type": "DT_FLOAT"}}}, {"name": "StatefulPartitionedCall/sequential_1/resnet50v2_1/conv2_block2_1_relu_1/Relu", "op": "_FusedConv2D", "input": ["StatefulPartitionedCall/sequential_1/resnet50v2_1/conv2_block2_preact_relu_1/Relu", "StatefulPartitionedCall/sequential_1/resnet50v2_1/conv2_block2_1_conv_1/convolution/merged_input", "StatefulPartitionedCall/sequential_1/resnet50v2_1/conv2_block2_1_bn_1/batchnorm/sub"], "device": "/device:CPU:0", "attr": {"num_host_args": {"i": "0"}, "data_format": {"s": "TkhXQw=="}, "filter_format": {"s": "SFdJTw=="}, "fused_ops": {"list": {"s": ["Qmlhc0FkZA==", "UmVsdQ=="]}}, "num_args": {"i": "1"}, "strides": {"list": {"i": ["1", "1", "1", "1"]}}, "TArgs": {"list": {"type": ["DT_FLOAT"]}}, "padding": {"s": "VkFMSUQ="}, "use_cudnn_on_gpu": {"b": true}, "leakyrelu_alpha": {"f": 0.2}, "epsilon": {"f": 0.0}, "T": {"type": "DT_FLOAT"}, "explicit_paddings": {"list": {}}, "dilations": {"list": {"i": ["1", "1", "1", "1"]}}}}, {"name": "StatefulPartitionedCall/sequential_1/resnet50v2_1/conv2_block2_2_pad_1/Pad", "op": "Pad", "input": ["StatefulPartitionedCall/sequential_1/resnet50v2_1/conv2_block2_1_relu_1/Relu", "StatefulPartitionedCall/sequential_1/resnet50v2_1/conv2_block2_2_pad_1/Const"], "attr": {"Tpaddings": {"type": "DT_INT32"}, "T": {"type": "DT_FLOAT"}}}, {"name": "StatefulPartitionedCall/sequential_1/resnet50v2_1/conv2_block2_2_relu_1/Relu", "op": "_FusedConv2D", "input": ["StatefulPartitionedCall/sequential_1/resnet50v2_1/conv2_block2_2_pad_1/Pad", "StatefulPartitionedCall/sequential_1/resnet50v2_1/conv2_block2_2_conv_1/convolution/merged_input", "StatefulPartitionedCall/sequential_1/resnet50v2_1/conv2_block2_2_bn_1/batchnorm/sub"], "device": "/device:CPU:0", "attr": {"num_host_args": {"i": "0"}, "data_format": {"s": "TkhXQw=="}, "filter_format": {"s": "SFdJTw=="}, "fused_ops": {"list": {"s": ["Qmlhc0FkZA==", "UmVsdQ=="]}}, "num_args": {"i": "1"}, "strides": {"list": {"i": ["1", "1", "1", "1"]}}, "TArgs": {"list": {"type": ["DT_FLOAT"]}}, "padding": {"s": "VkFMSUQ="}, "use_cudnn_on_gpu": {"b": true}, "leakyrelu_alpha": {"f": 0.2}, "epsilon": {"f": 0.0}, "T": {"type": "DT_FLOAT"}, "explicit_paddings": {"list": {}}, "dilations": {"list": {"i": ["1", "1", "1", "1"]}}}}, {"name": "StatefulPartitionedCall/sequential_1/resnet50v2_1/conv2_block2_3_conv_1/BiasAdd", "op": "_FusedConv2D", "input": ["StatefulPartitionedCall/sequential_1/resnet50v2_1/conv2_block2_2_relu_1/Relu", "StatefulPartitionedCall/sequential_1/resnet50v2_1/conv2_block2_3_conv_1/convolution/ReadVariableOp", "StatefulPartitionedCall/sequential_1/resnet50v2_1/conv2_block2_3_conv_1/Squeeze"], "device": "/device:CPU:0", "attr": {"num_host_args": {"i": "0"}, "data_format": {"s": "TkhXQw=="}, "filter_format": {"s": "SFdJTw=="}, "strides": {"list": {"i": ["1", "1", "1", "1"]}}, "num_args": {"i": "1"}, "fused_ops": {"list": {"s": ["Qmlhc0FkZA=="]}}, "TArgs": {"list": {"type": ["DT_FLOAT"]}}, "padding": {"s": "VkFMSUQ="}, "use_cudnn_on_gpu": {"b": true}, "leakyrelu_alpha": {"f": 0.2}, "epsilon": {"f": 0.0}, "T": {"type": "DT_FLOAT"}, "explicit_paddings": {"list": {}}, "dilations": {"list": {"i": ["1", "1", "1", "1"]}}}}, {"name": "StatefulPartitionedCall/sequential_1/resnet50v2_1/conv2_block2_out_1/Add", "op": "AddV2", "input": ["StatefulPartitionedCall/sequential_1/resnet50v2_1/conv2_block1_out_1/Add", "StatefulPartitionedCall/sequential_1/resnet50v2_1/conv2_block2_3_conv_1/BiasAdd"], "attr": {"T": {"type": "DT_FLOAT"}}}, {"name": "StatefulPartitionedCall/sequential_1/resnet50v2_1/max_pooling2d_1/MaxPool2d", "op": "MaxPool", "input": ["StatefulPartitionedCall/sequential_1/resnet50v2_1/conv2_block2_out_1/Add"], "attr": {"ksize": {"list": {"i": ["1", "1", "1", "1"]}}, "data_format": {"s": "TkhXQw=="}, "T": {"type": "DT_FLOAT"}, "explicit_paddings": {"list": {}}, "padding": {"s": "VkFMSUQ="}, "strides": {"list": {"i": ["1", "2", "2", "1"]}}}}, {"name": "StatefulPartitionedCall/sequential_1/resnet50v2_1/conv2_block3_preact_bn_1/batchnorm/mul_1", "op": "Mul", "input": ["StatefulPartitionedCall/sequential_1/resnet50v2_1/conv2_block2_out_1/Add", "StatefulPartitionedCall/sequential_1/resnet50v2_1/conv2_block3_preact_bn_1/batchnorm/mul"], "attr": {"T": {"type": "DT_FLOAT"}}}, {"name": "StatefulPartitionedCall/sequential_1/resnet50v2_1/conv2_block3_preact_bn_1/batchnorm/add_1", "op": "AddV2", "input": ["StatefulPartitionedCall/sequential_1/resnet50v2_1/conv2_block3_preact_bn_1/batchnorm/mul_1", "StatefulPartitionedCall/sequential_1/resnet50v2_1/conv2_block3_preact_bn_1/batchnorm/sub"], "attr": {"T": {"type": "DT_FLOAT"}}}, {"name": "StatefulPartitionedCall/sequential_1/resnet50v2_1/conv2_block3_preact_relu_1/Relu", "op": "Relu", "input": ["StatefulPartitionedCall/sequential_1/resnet50v2_1/conv2_block3_preact_bn_1/batchnorm/add_1"], "attr": {"T": {"type": "DT_FLOAT"}}}, {"name": "StatefulPartitionedCall/sequential_1/resnet50v2_1/conv2_block3_1_relu_1/Relu", "op": "_FusedConv2D", "input": ["StatefulPartitionedCall/sequential_1/resnet50v2_1/conv2_block3_preact_relu_1/Relu", "StatefulPartitionedCall/sequential_1/resnet50v2_1/conv2_block3_1_conv_1/convolution/merged_input", "StatefulPartitionedCall/sequential_1/resnet50v2_1/conv2_block3_1_bn_1/batchnorm/sub"], "device": "/device:CPU:0", "attr": {"num_host_args": {"i": "0"}, "data_format": {"s": "TkhXQw=="}, "filter_format": {"s": "SFdJTw=="}, "fused_ops": {"list": {"s": ["Qmlhc0FkZA==", "UmVsdQ=="]}}, "num_args": {"i": "1"}, "strides": {"list": {"i": ["1", "1", "1", "1"]}}, "TArgs": {"list": {"type": ["DT_FLOAT"]}}, "padding": {"s": "VkFMSUQ="}, "use_cudnn_on_gpu": {"b": true}, "leakyrelu_alpha": {"f": 0.2}, "epsilon": {"f": 0.0}, "T": {"type": "DT_FLOAT"}, "explicit_paddings": {"list": {}}, "dilations": {"list": {"i": ["1", "1", "1", "1"]}}}}, {"name": "StatefulPartitionedCall/sequential_1/resnet50v2_1/conv2_block3_2_pad_1/Pad", "op": "Pad", "input": ["StatefulPartitionedCall/sequential_1/resnet50v2_1/conv2_block3_1_relu_1/Relu", "StatefulPartitionedCall/sequential_1/resnet50v2_1/conv2_block3_2_pad_1/Const"], "attr": {"Tpaddings": {"type": "DT_INT32"}, "T": {"type": "DT_FLOAT"}}}, {"name": "StatefulPartitionedCall/sequential_1/resnet50v2_1/conv2_block3_2_relu_1/Relu", "op": "_FusedConv2D", "input": ["StatefulPartitionedCall/sequential_1/resnet50v2_1/conv2_block3_2_pad_1/Pad", "StatefulPartitionedCall/sequential_1/resnet50v2_1/conv2_block3_2_conv_1/convolution/merged_input", "StatefulPartitionedCall/sequential_1/resnet50v2_1/conv2_block3_2_bn_1/batchnorm/sub"], "device": "/device:CPU:0", "attr": {"num_host_args": {"i": "0"}, "data_format": {"s": "TkhXQw=="}, "filter_format": {"s": "SFdJTw=="}, "fused_ops": {"list": {"s": ["Qmlhc0FkZA==", "UmVsdQ=="]}}, "num_args": {"i": "1"}, "strides": {"list": {"i": ["1", "2", "2", "1"]}}, "TArgs": {"list": {"type": ["DT_FLOAT"]}}, "padding": {"s": "VkFMSUQ="}, "use_cudnn_on_gpu": {"b": true}, "leakyrelu_alpha": {"f": 0.2}, "epsilon": {"f": 0.0}, "T": {"type": "DT_FLOAT"}, "explicit_paddings": {"list": {}}, "dilations": {"list": {"i": ["1", "1", "1", "1"]}}}}, {"name": "StatefulPartitionedCall/sequential_1/resnet50v2_1/conv2_block3_3_conv_1/BiasAdd", "op": "_FusedConv2D", "input": ["StatefulPartitionedCall/sequential_1/resnet50v2_1/conv2_block3_2_relu_1/Relu", "StatefulPartitionedCall/sequential_1/resnet50v2_1/conv2_block3_3_conv_1/convolution/ReadVariableOp", "StatefulPartitionedCall/sequential_1/resnet50v2_1/conv2_block3_3_conv_1/Squeeze"], "device": "/device:CPU:0", "attr": {"num_host_args": {"i": "0"}, "data_format": {"s": "TkhXQw=="}, "filter_format": {"s": "SFdJTw=="}, "fused_ops": {"list": {"s": ["Qmlhc0FkZA=="]}}, "num_args": {"i": "1"}, "strides": {"list": {"i": ["1", "1", "1", "1"]}}, "TArgs": {"list": {"type": ["DT_FLOAT"]}}, "padding": {"s": "VkFMSUQ="}, "use_cudnn_on_gpu": {"b": true}, "leakyrelu_alpha": {"f": 0.2}, "epsilon": {"f": 0.0}, "T": {"type": "DT_FLOAT"}, "explicit_paddings": {"list": {}}, "dilations": {"list": {"i": ["1", "1", "1", "1"]}}}}, {"name": "StatefulPartitionedCall/sequential_1/resnet50v2_1/conv2_block3_out_1/Add", "op": "AddV2", "input": ["StatefulPartitionedCall/sequential_1/resnet50v2_1/max_pooling2d_1/MaxPool2d", "StatefulPartitionedCall/sequential_1/resnet50v2_1/conv2_block3_3_conv_1/BiasAdd"], "attr": {"T": {"type": "DT_FLOAT"}}}, {"name": "StatefulPartitionedCall/sequential_1/resnet50v2_1/conv3_block1_preact_bn_1/batchnorm/mul_1", "op": "Mul", "input": ["StatefulPartitionedCall/sequential_1/resnet50v2_1/conv2_block3_out_1/Add", "StatefulPartitionedCall/sequential_1/resnet50v2_1/conv3_block1_preact_bn_1/batchnorm/mul"], "attr": {"T": {"type": "DT_FLOAT"}}}, {"name": "StatefulPartitionedCall/sequential_1/resnet50v2_1/conv3_block1_preact_bn_1/batchnorm/add_1", "op": "AddV2", "input": ["StatefulPartitionedCall/sequential_1/resnet50v2_1/conv3_block1_preact_bn_1/batchnorm/mul_1", "StatefulPartitionedCall/sequential_1/resnet50v2_1/conv3_block1_preact_bn_1/batchnorm/sub"], "attr": {"T": {"type": "DT_FLOAT"}}}, {"name": "StatefulPartitionedCall/sequential_1/resnet50v2_1/conv3_block1_preact_relu_1/Relu", "op": "Relu", "input": ["StatefulPartitionedCall/sequential_1/resnet50v2_1/conv3_block1_preact_bn_1/batchnorm/add_1"], "attr": {"T": {"type": "DT_FLOAT"}}}, {"name": "StatefulPartitionedCall/sequential_1/resnet50v2_1/conv3_block1_0_conv_1/BiasAdd", "op": "_FusedConv2D", "input": ["StatefulPartitionedCall/sequential_1/resnet50v2_1/conv3_block1_preact_relu_1/Relu", "StatefulPartitionedCall/sequential_1/resnet50v2_1/conv3_block1_0_conv_1/convolution/ReadVariableOp", "StatefulPartitionedCall/sequential_1/resnet50v2_1/conv3_block1_0_conv_1/Squeeze"], "device": "/device:CPU:0", "attr": {"num_host_args": {"i": "0"}, "data_format": {"s": "TkhXQw=="}, "filter_format": {"s": "SFdJTw=="}, "fused_ops": {"list": {"s": ["Qmlhc0FkZA=="]}}, "num_args": {"i": "1"}, "strides": {"list": {"i": ["1", "1", "1", "1"]}}, "TArgs": {"list": {"type": ["DT_FLOAT"]}}, "padding": {"s": "VkFMSUQ="}, "use_cudnn_on_gpu": {"b": true}, "leakyrelu_alpha": {"f": 0.2}, "epsilon": {"f": 0.0}, "T": {"type": "DT_FLOAT"}, "explicit_paddings": {"list": {}}, "dilations": {"list": {"i": ["1", "1", "1", "1"]}}}}, {"name": "StatefulPartitionedCall/sequential_1/resnet50v2_1/conv3_block1_1_relu_1/Relu", "op": "_FusedConv2D", "input": ["StatefulPartitionedCall/sequential_1/resnet50v2_1/conv3_block1_preact_relu_1/Relu", "StatefulPartitionedCall/sequential_1/resnet50v2_1/conv3_block1_1_conv_1/convolution/merged_input", "StatefulPartitionedCall/sequential_1/resnet50v2_1/conv3_block1_1_bn_1/batchnorm/sub"], "device": "/device:CPU:0", "attr": {"num_host_args": {"i": "0"}, "data_format": {"s": "TkhXQw=="}, "filter_format": {"s": "SFdJTw=="}, "strides": {"list": {"i": ["1", "1", "1", "1"]}}, "num_args": {"i": "1"}, "fused_ops": {"list": {"s": ["Qmlhc0FkZA==", "UmVsdQ=="]}}, "TArgs": {"list": {"type": ["DT_FLOAT"]}}, "padding": {"s": "VkFMSUQ="}, "use_cudnn_on_gpu": {"b": true}, "leakyrelu_alpha": {"f": 0.2}, "epsilon": {"f": 0.0}, "T": {"type": "DT_FLOAT"}, "explicit_paddings": {"list": {}}, "dilations": {"list": {"i": ["1", "1", "1", "1"]}}}}, {"name": "StatefulPartitionedCall/sequential_1/resnet50v2_1/conv3_block1_2_pad_1/Pad", "op": "Pad", "input": ["StatefulPartitionedCall/sequential_1/resnet50v2_1/conv3_block1_1_relu_1/Relu", "StatefulPartitionedCall/sequential_1/resnet50v2_1/conv3_block1_2_pad_1/Const"], "attr": {"Tpaddings": {"type": "DT_INT32"}, "T": {"type": "DT_FLOAT"}}}, {"name": "StatefulPartitionedCall/sequential_1/resnet50v2_1/conv3_block1_2_relu_1/Relu", "op": "_FusedConv2D", "input": ["StatefulPartitionedCall/sequential_1/resnet50v2_1/conv3_block1_2_pad_1/Pad", "StatefulPartitionedCall/sequential_1/resnet50v2_1/conv3_block1_2_conv_1/convolution/merged_input", "StatefulPartitionedCall/sequential_1/resnet50v2_1/conv3_block1_2_bn_1/batchnorm/sub"], "device": "/device:CPU:0", "attr": {"num_host_args": {"i": "0"}, "data_format": {"s": "TkhXQw=="}, "filter_format": {"s": "SFdJTw=="}, "fused_ops": {"list": {"s": ["Qmlhc0FkZA==", "UmVsdQ=="]}}, "num_args": {"i": "1"}, "strides": {"list": {"i": ["1", "1", "1", "1"]}}, "TArgs": {"list": {"type": ["DT_FLOAT"]}}, "padding": {"s": "VkFMSUQ="}, "use_cudnn_on_gpu": {"b": true}, "leakyrelu_alpha": {"f": 0.2}, "epsilon": {"f": 0.0}, "T": {"type": "DT_FLOAT"}, "explicit_paddings": {"list": {}}, "dilations": {"list": {"i": ["1", "1", "1", "1"]}}}}, {"name": "StatefulPartitionedCall/sequential_1/resnet50v2_1/conv3_block1_3_conv_1/BiasAdd", "op": "_FusedConv2D", "input": ["StatefulPartitionedCall/sequential_1/resnet50v2_1/conv3_block1_2_relu_1/Relu", "StatefulPartitionedCall/sequential_1/resnet50v2_1/conv3_block1_3_conv_1/convolution/ReadVariableOp", "StatefulPartitionedCall/sequential_1/resnet50v2_1/conv3_block1_3_conv_1/Squeeze"], "device": "/device:CPU:0", "attr": {"num_host_args": {"i": "0"}, "data_format": {"s": "TkhXQw=="}, "filter_format": {"s": "SFdJTw=="}, "fused_ops": {"list": {"s": ["Qmlhc0FkZA=="]}}, "num_args": {"i": "1"}, "strides": {"list": {"i": ["1", "1", "1", "1"]}}, "TArgs": {"list": {"type": ["DT_FLOAT"]}}, "padding": {"s": "VkFMSUQ="}, "use_cudnn_on_gpu": {"b": true}, "leakyrelu_alpha": {"f": 0.2}, "epsilon": {"f": 0.0}, "T": {"type": "DT_FLOAT"}, "explicit_paddings": {"list": {}}, "dilations": {"list": {"i": ["1", "1", "1", "1"]}}}}, {"name": "StatefulPartitionedCall/sequential_1/resnet50v2_1/conv3_block1_out_1/Add", "op": "AddV2", "input": ["StatefulPartitionedCall/sequential_1/resnet50v2_1/conv3_block1_0_conv_1/BiasAdd", "StatefulPartitionedCall/sequential_1/resnet50v2_1/conv3_block1_3_conv_1/BiasAdd"], "attr": {"T": {"type": "DT_FLOAT"}}}, {"name": "StatefulPartitionedCall/sequential_1/resnet50v2_1/conv3_block2_preact_bn_1/batchnorm/mul_1", "op": "Mul", "input": ["StatefulPartitionedCall/sequential_1/resnet50v2_1/conv3_block1_out_1/Add", "StatefulPartitionedCall/sequential_1/resnet50v2_1/conv3_block2_preact_bn_1/batchnorm/mul"], "attr": {"T": {"type": "DT_FLOAT"}}}, {"name": "StatefulPartitionedCall/sequential_1/resnet50v2_1/conv3_block2_preact_bn_1/batchnorm/add_1", "op": "AddV2", "input": ["StatefulPartitionedCall/sequential_1/resnet50v2_1/conv3_block2_preact_bn_1/batchnorm/mul_1", "StatefulPartitionedCall/sequential_1/resnet50v2_1/conv3_block2_preact_bn_1/batchnorm/sub"], "attr": {"T": {"type": "DT_FLOAT"}}}, {"name": "StatefulPartitionedCall/sequential_1/resnet50v2_1/conv3_block2_preact_relu_1/Relu", "op": "Relu", "input": ["StatefulPartitionedCall/sequential_1/resnet50v2_1/conv3_block2_preact_bn_1/batchnorm/add_1"], "attr": {"T": {"type": "DT_FLOAT"}}}, {"name": "StatefulPartitionedCall/sequential_1/resnet50v2_1/conv3_block2_1_relu_1/Relu", "op": "_FusedConv2D", "input": ["StatefulPartitionedCall/sequential_1/resnet50v2_1/conv3_block2_preact_relu_1/Relu", "StatefulPartitionedCall/sequential_1/resnet50v2_1/conv3_block2_1_conv_1/convolution/merged_input", "StatefulPartitionedCall/sequential_1/resnet50v2_1/conv3_block2_1_bn_1/batchnorm/sub"], "device": "/device:CPU:0", "attr": {"num_host_args": {"i": "0"}, "data_format": {"s": "TkhXQw=="}, "filter_format": {"s": "SFdJTw=="}, "strides": {"list": {"i": ["1", "1", "1", "1"]}}, "num_args": {"i": "1"}, "fused_ops": {"list": {"s": ["Qmlhc0FkZA==", "UmVsdQ=="]}}, "TArgs": {"list": {"type": ["DT_FLOAT"]}}, "padding": {"s": "VkFMSUQ="}, "use_cudnn_on_gpu": {"b": true}, "leakyrelu_alpha": {"f": 0.2}, "epsilon": {"f": 0.0}, "T": {"type": "DT_FLOAT"}, "explicit_paddings": {"list": {}}, "dilations": {"list": {"i": ["1", "1", "1", "1"]}}}}, {"name": "StatefulPartitionedCall/sequential_1/resnet50v2_1/conv3_block2_2_pad_1/Pad", "op": "Pad", "input": ["StatefulPartitionedCall/sequential_1/resnet50v2_1/conv3_block2_1_relu_1/Relu", "StatefulPartitionedCall/sequential_1/resnet50v2_1/conv3_block2_2_pad_1/Const"], "attr": {"Tpaddings": {"type": "DT_INT32"}, "T": {"type": "DT_FLOAT"}}}, {"name": "StatefulPartitionedCall/sequential_1/resnet50v2_1/conv3_block2_2_relu_1/Relu", "op": "_FusedConv2D", "input": ["StatefulPartitionedCall/sequential_1/resnet50v2_1/conv3_block2_2_pad_1/Pad", "StatefulPartitionedCall/sequential_1/resnet50v2_1/conv3_block2_2_conv_1/convolution/merged_input", "StatefulPartitionedCall/sequential_1/resnet50v2_1/conv3_block2_2_bn_1/batchnorm/sub"], "device": "/device:CPU:0", "attr": {"num_host_args": {"i": "0"}, "data_format": {"s": "TkhXQw=="}, "filter_format": {"s": "SFdJTw=="}, "fused_ops": {"list": {"s": ["Qmlhc0FkZA==", "UmVsdQ=="]}}, "num_args": {"i": "1"}, "strides": {"list": {"i": ["1", "1", "1", "1"]}}, "TArgs": {"list": {"type": ["DT_FLOAT"]}}, "padding": {"s": "VkFMSUQ="}, "use_cudnn_on_gpu": {"b": true}, "leakyrelu_alpha": {"f": 0.2}, "epsilon": {"f": 0.0}, "T": {"type": "DT_FLOAT"}, "explicit_paddings": {"list": {}}, "dilations": {"list": {"i": ["1", "1", "1", "1"]}}}}, {"name": "StatefulPartitionedCall/sequential_1/resnet50v2_1/conv3_block2_3_conv_1/BiasAdd", "op": "_FusedConv2D", "input": ["StatefulPartitionedCall/sequential_1/resnet50v2_1/conv3_block2_2_relu_1/Relu", "StatefulPartitionedCall/sequential_1/resnet50v2_1/conv3_block2_3_conv_1/convolution/ReadVariableOp", "StatefulPartitionedCall/sequential_1/resnet50v2_1/conv3_block2_3_conv_1/Squeeze"], "device": "/device:CPU:0", "attr": {"num_host_args": {"i": "0"}, "data_format": {"s": "TkhXQw=="}, "filter_format": {"s": "SFdJTw=="}, "fused_ops": {"list": {"s": ["Qmlhc0FkZA=="]}}, "num_args": {"i": "1"}, "strides": {"list": {"i": ["1", "1", "1", "1"]}}, "TArgs": {"list": {"type": ["DT_FLOAT"]}}, "padding": {"s": "VkFMSUQ="}, "use_cudnn_on_gpu": {"b": true}, "leakyrelu_alpha": {"f": 0.2}, "epsilon": {"f": 0.0}, "T": {"type": "DT_FLOAT"}, "explicit_paddings": {"list": {}}, "dilations": {"list": {"i": ["1", "1", "1", "1"]}}}}, {"name": "StatefulPartitionedCall/sequential_1/resnet50v2_1/conv3_block2_out_1/Add", "op": "AddV2", "input": ["StatefulPartitionedCall/sequential_1/resnet50v2_1/conv3_block1_out_1/Add", "StatefulPartitionedCall/sequential_1/resnet50v2_1/conv3_block2_3_conv_1/BiasAdd"], "attr": {"T": {"type": "DT_FLOAT"}}}, {"name": "StatefulPartitionedCall/sequential_1/resnet50v2_1/conv3_block3_preact_bn_1/batchnorm/mul_1", "op": "Mul", "input": ["StatefulPartitionedCall/sequential_1/resnet50v2_1/conv3_block2_out_1/Add", "StatefulPartitionedCall/sequential_1/resnet50v2_1/conv3_block3_preact_bn_1/batchnorm/mul"], "attr": {"T": {"type": "DT_FLOAT"}}}, {"name": "StatefulPartitionedCall/sequential_1/resnet50v2_1/conv3_block3_preact_bn_1/batchnorm/add_1", "op": "AddV2", "input": ["StatefulPartitionedCall/sequential_1/resnet50v2_1/conv3_block3_preact_bn_1/batchnorm/mul_1", "StatefulPartitionedCall/sequential_1/resnet50v2_1/conv3_block3_preact_bn_1/batchnorm/sub"], "attr": {"T": {"type": "DT_FLOAT"}}}, {"name": "StatefulPartitionedCall/sequential_1/resnet50v2_1/conv3_block3_preact_relu_1/Relu", "op": "Relu", "input": ["StatefulPartitionedCall/sequential_1/resnet50v2_1/conv3_block3_preact_bn_1/batchnorm/add_1"], "attr": {"T": {"type": "DT_FLOAT"}}}, {"name": "StatefulPartitionedCall/sequential_1/resnet50v2_1/conv3_block3_1_relu_1/Relu", "op": "_FusedConv2D", "input": ["StatefulPartitionedCall/sequential_1/resnet50v2_1/conv3_block3_preact_relu_1/Relu", "StatefulPartitionedCall/sequential_1/resnet50v2_1/conv3_block3_1_conv_1/convolution/merged_input", "StatefulPartitionedCall/sequential_1/resnet50v2_1/conv3_block3_1_bn_1/batchnorm/sub"], "device": "/device:CPU:0", "attr": {"num_host_args": {"i": "0"}, "data_format": {"s": "TkhXQw=="}, "filter_format": {"s": "SFdJTw=="}, "strides": {"list": {"i": ["1", "1", "1", "1"]}}, "num_args": {"i": "1"}, "fused_ops": {"list": {"s": ["Qmlhc0FkZA==", "UmVsdQ=="]}}, "TArgs": {"list": {"type": ["DT_FLOAT"]}}, "padding": {"s": "VkFMSUQ="}, "use_cudnn_on_gpu": {"b": true}, "leakyrelu_alpha": {"f": 0.2}, "epsilon": {"f": 0.0}, "T": {"type": "DT_FLOAT"}, "explicit_paddings": {"list": {}}, "dilations": {"list": {"i": ["1", "1", "1", "1"]}}}}, {"name": "StatefulPartitionedCall/sequential_1/resnet50v2_1/conv3_block3_2_pad_1/Pad", "op": "Pad", "input": ["StatefulPartitionedCall/sequential_1/resnet50v2_1/conv3_block3_1_relu_1/Relu", "StatefulPartitionedCall/sequential_1/resnet50v2_1/conv3_block3_2_pad_1/Const"], "attr": {"Tpaddings": {"type": "DT_INT32"}, "T": {"type": "DT_FLOAT"}}}, {"name": "StatefulPartitionedCall/sequential_1/resnet50v2_1/conv3_block3_2_relu_1/Relu", "op": "_FusedConv2D", "input": ["StatefulPartitionedCall/sequential_1/resnet50v2_1/conv3_block3_2_pad_1/Pad", "StatefulPartitionedCall/sequential_1/resnet50v2_1/conv3_block3_2_conv_1/convolution/merged_input", "StatefulPartitionedCall/sequential_1/resnet50v2_1/conv3_block3_2_bn_1/batchnorm/sub"], "device": "/device:CPU:0", "attr": {"num_host_args": {"i": "0"}, "data_format": {"s": "TkhXQw=="}, "filter_format": {"s": "SFdJTw=="}, "strides": {"list": {"i": ["1", "1", "1", "1"]}}, "num_args": {"i": "1"}, "fused_ops": {"list": {"s": ["Qmlhc0FkZA==", "UmVsdQ=="]}}, "TArgs": {"list": {"type": ["DT_FLOAT"]}}, "padding": {"s": "VkFMSUQ="}, "use_cudnn_on_gpu": {"b": true}, "leakyrelu_alpha": {"f": 0.2}, "epsilon": {"f": 0.0}, "T": {"type": "DT_FLOAT"}, "explicit_paddings": {"list": {}}, "dilations": {"list": {"i": ["1", "1", "1", "1"]}}}}, {"name": "StatefulPartitionedCall/sequential_1/resnet50v2_1/conv3_block3_3_conv_1/BiasAdd", "op": "_FusedConv2D", "input": ["StatefulPartitionedCall/sequential_1/resnet50v2_1/conv3_block3_2_relu_1/Relu", "StatefulPartitionedCall/sequential_1/resnet50v2_1/conv3_block3_3_conv_1/convolution/ReadVariableOp", "StatefulPartitionedCall/sequential_1/resnet50v2_1/conv3_block3_3_conv_1/Squeeze"], "device": "/device:CPU:0", "attr": {"num_host_args": {"i": "0"}, "data_format": {"s": "TkhXQw=="}, "filter_format": {"s": "SFdJTw=="}, "fused_ops": {"list": {"s": ["Qmlhc0FkZA=="]}}, "num_args": {"i": "1"}, "strides": {"list": {"i": ["1", "1", "1", "1"]}}, "TArgs": {"list": {"type": ["DT_FLOAT"]}}, "padding": {"s": "VkFMSUQ="}, "use_cudnn_on_gpu": {"b": true}, "leakyrelu_alpha": {"f": 0.2}, "epsilon": {"f": 0.0}, "T": {"type": "DT_FLOAT"}, "explicit_paddings": {"list": {}}, "dilations": {"list": {"i": ["1", "1", "1", "1"]}}}}, {"name": "StatefulPartitionedCall/sequential_1/resnet50v2_1/conv3_block3_out_1/Add", "op": "AddV2", "input": ["StatefulPartitionedCall/sequential_1/resnet50v2_1/conv3_block2_out_1/Add", "StatefulPartitionedCall/sequential_1/resnet50v2_1/conv3_block3_3_conv_1/BiasAdd"], "attr": {"T": {"type": "DT_FLOAT"}}}, {"name": "StatefulPartitionedCall/sequential_1/resnet50v2_1/max_pooling2d_1_2/MaxPool2d", "op": "MaxPool", "input": ["StatefulPartitionedCall/sequential_1/resnet50v2_1/conv3_block3_out_1/Add"], "attr": {"padding": {"s": "VkFMSUQ="}, "data_format": {"s": "TkhXQw=="}, "T": {"type": "DT_FLOAT"}, "explicit_paddings": {"list": {}}, "ksize": {"list": {"i": ["1", "1", "1", "1"]}}, "strides": {"list": {"i": ["1", "2", "2", "1"]}}}}, {"name": "StatefulPartitionedCall/sequential_1/resnet50v2_1/conv3_block4_preact_bn_1/batchnorm/mul_1", "op": "Mul", "input": ["StatefulPartitionedCall/sequential_1/resnet50v2_1/conv3_block3_out_1/Add", "StatefulPartitionedCall/sequential_1/resnet50v2_1/conv3_block4_preact_bn_1/batchnorm/mul"], "attr": {"T": {"type": "DT_FLOAT"}}}, {"name": "StatefulPartitionedCall/sequential_1/resnet50v2_1/conv3_block4_preact_bn_1/batchnorm/add_1", "op": "AddV2", "input": ["StatefulPartitionedCall/sequential_1/resnet50v2_1/conv3_block4_preact_bn_1/batchnorm/mul_1", "StatefulPartitionedCall/sequential_1/resnet50v2_1/conv3_block4_preact_bn_1/batchnorm/sub"], "attr": {"T": {"type": "DT_FLOAT"}}}, {"name": "StatefulPartitionedCall/sequential_1/resnet50v2_1/conv3_block4_preact_relu_1/Relu", "op": "Relu", "input": ["StatefulPartitionedCall/sequential_1/resnet50v2_1/conv3_block4_preact_bn_1/batchnorm/add_1"], "attr": {"T": {"type": "DT_FLOAT"}}}, {"name": "StatefulPartitionedCall/sequential_1/resnet50v2_1/conv3_block4_1_relu_1/Relu", "op": "_FusedConv2D", "input": ["StatefulPartitionedCall/sequential_1/resnet50v2_1/conv3_block4_preact_relu_1/Relu", "StatefulPartitionedCall/sequential_1/resnet50v2_1/conv3_block4_1_conv_1/convolution/merged_input", "StatefulPartitionedCall/sequential_1/resnet50v2_1/conv3_block4_1_bn_1/batchnorm/sub"], "device": "/device:CPU:0", "attr": {"num_host_args": {"i": "0"}, "data_format": {"s": "TkhXQw=="}, "filter_format": {"s": "SFdJTw=="}, "fused_ops": {"list": {"s": ["Qmlhc0FkZA==", "UmVsdQ=="]}}, "num_args": {"i": "1"}, "strides": {"list": {"i": ["1", "1", "1", "1"]}}, "TArgs": {"list": {"type": ["DT_FLOAT"]}}, "padding": {"s": "VkFMSUQ="}, "use_cudnn_on_gpu": {"b": true}, "leakyrelu_alpha": {"f": 0.2}, "epsilon": {"f": 0.0}, "T": {"type": "DT_FLOAT"}, "explicit_paddings": {"list": {}}, "dilations": {"list": {"i": ["1", "1", "1", "1"]}}}}, {"name": "StatefulPartitionedCall/sequential_1/resnet50v2_1/conv3_block4_2_pad_1/Pad", "op": "Pad", "input": ["StatefulPartitionedCall/sequential_1/resnet50v2_1/conv3_block4_1_relu_1/Relu", "StatefulPartitionedCall/sequential_1/resnet50v2_1/conv3_block4_2_pad_1/Const"], "attr": {"Tpaddings": {"type": "DT_INT32"}, "T": {"type": "DT_FLOAT"}}}, {"name": "StatefulPartitionedCall/sequential_1/resnet50v2_1/conv3_block4_2_relu_1/Relu", "op": "_FusedConv2D", "input": ["StatefulPartitionedCall/sequential_1/resnet50v2_1/conv3_block4_2_pad_1/Pad", "StatefulPartitionedCall/sequential_1/resnet50v2_1/conv3_block4_2_conv_1/convolution/merged_input", "StatefulPartitionedCall/sequential_1/resnet50v2_1/conv3_block4_2_bn_1/batchnorm/sub"], "device": "/device:CPU:0", "attr": {"num_host_args": {"i": "0"}, "data_format": {"s": "TkhXQw=="}, "filter_format": {"s": "SFdJTw=="}, "fused_ops": {"list": {"s": ["Qmlhc0FkZA==", "UmVsdQ=="]}}, "num_args": {"i": "1"}, "strides": {"list": {"i": ["1", "2", "2", "1"]}}, "TArgs": {"list": {"type": ["DT_FLOAT"]}}, "padding": {"s": "VkFMSUQ="}, "use_cudnn_on_gpu": {"b": true}, "leakyrelu_alpha": {"f": 0.2}, "epsilon": {"f": 0.0}, "T": {"type": "DT_FLOAT"}, "explicit_paddings": {"list": {}}, "dilations": {"list": {"i": ["1", "1", "1", "1"]}}}}, {"name": "StatefulPartitionedCall/sequential_1/resnet50v2_1/conv3_block4_3_conv_1/BiasAdd", "op": "_FusedConv2D", "input": ["StatefulPartitionedCall/sequential_1/resnet50v2_1/conv3_block4_2_relu_1/Relu", "StatefulPartitionedCall/sequential_1/resnet50v2_1/conv3_block4_3_conv_1/convolution/ReadVariableOp", "StatefulPartitionedCall/sequential_1/resnet50v2_1/conv3_block4_3_conv_1/Squeeze"], "device": "/device:CPU:0", "attr": {"num_host_args": {"i": "0"}, "data_format": {"s": "TkhXQw=="}, "filter_format": {"s": "SFdJTw=="}, "fused_ops": {"list": {"s": ["Qmlhc0FkZA=="]}}, "num_args": {"i": "1"}, "strides": {"list": {"i": ["1", "1", "1", "1"]}}, "TArgs": {"list": {"type": ["DT_FLOAT"]}}, "padding": {"s": "VkFMSUQ="}, "use_cudnn_on_gpu": {"b": true}, "leakyrelu_alpha": {"f": 0.2}, "epsilon": {"f": 0.0}, "T": {"type": "DT_FLOAT"}, "explicit_paddings": {"list": {}}, "dilations": {"list": {"i": ["1", "1", "1", "1"]}}}}, {"name": "StatefulPartitionedCall/sequential_1/resnet50v2_1/conv3_block4_out_1/Add", "op": "AddV2", "input": ["StatefulPartitionedCall/sequential_1/resnet50v2_1/max_pooling2d_1_2/MaxPool2d", "StatefulPartitionedCall/sequential_1/resnet50v2_1/conv3_block4_3_conv_1/BiasAdd"], "attr": {"T": {"type": "DT_FLOAT"}}}, {"name": "StatefulPartitionedCall/sequential_1/resnet50v2_1/conv4_block1_preact_bn_1/batchnorm/mul_1", "op": "Mul", "input": ["StatefulPartitionedCall/sequential_1/resnet50v2_1/conv3_block4_out_1/Add", "StatefulPartitionedCall/sequential_1/resnet50v2_1/conv4_block1_preact_bn_1/batchnorm/mul"], "attr": {"T": {"type": "DT_FLOAT"}}}, {"name": "StatefulPartitionedCall/sequential_1/resnet50v2_1/conv4_block1_preact_bn_1/batchnorm/add_1", "op": "AddV2", "input": ["StatefulPartitionedCall/sequential_1/resnet50v2_1/conv4_block1_preact_bn_1/batchnorm/mul_1", "StatefulPartitionedCall/sequential_1/resnet50v2_1/conv4_block1_preact_bn_1/batchnorm/sub"], "attr": {"T": {"type": "DT_FLOAT"}}}, {"name": "StatefulPartitionedCall/sequential_1/resnet50v2_1/conv4_block1_preact_relu_1/Relu", "op": "Relu", "input": ["StatefulPartitionedCall/sequential_1/resnet50v2_1/conv4_block1_preact_bn_1/batchnorm/add_1"], "attr": {"T": {"type": "DT_FLOAT"}}}, {"name": "StatefulPartitionedCall/sequential_1/resnet50v2_1/conv4_block1_0_conv_1/BiasAdd", "op": "_FusedConv2D", "input": ["StatefulPartitionedCall/sequential_1/resnet50v2_1/conv4_block1_preact_relu_1/Relu", "StatefulPartitionedCall/sequential_1/resnet50v2_1/conv4_block1_0_conv_1/convolution/ReadVariableOp", "StatefulPartitionedCall/sequential_1/resnet50v2_1/conv4_block1_0_conv_1/Squeeze"], "device": "/device:CPU:0", "attr": {"num_host_args": {"i": "0"}, "data_format": {"s": "TkhXQw=="}, "filter_format": {"s": "SFdJTw=="}, "strides": {"list": {"i": ["1", "1", "1", "1"]}}, "num_args": {"i": "1"}, "fused_ops": {"list": {"s": ["Qmlhc0FkZA=="]}}, "TArgs": {"list": {"type": ["DT_FLOAT"]}}, "padding": {"s": "VkFMSUQ="}, "use_cudnn_on_gpu": {"b": true}, "leakyrelu_alpha": {"f": 0.2}, "epsilon": {"f": 0.0}, "T": {"type": "DT_FLOAT"}, "explicit_paddings": {"list": {}}, "dilations": {"list": {"i": ["1", "1", "1", "1"]}}}}, {"name": "StatefulPartitionedCall/sequential_1/resnet50v2_1/conv4_block1_1_relu_1/Relu", "op": "_FusedConv2D", "input": ["StatefulPartitionedCall/sequential_1/resnet50v2_1/conv4_block1_preact_relu_1/Relu", "StatefulPartitionedCall/sequential_1/resnet50v2_1/conv4_block1_1_conv_1/convolution/merged_input", "StatefulPartitionedCall/sequential_1/resnet50v2_1/conv4_block1_1_bn_1/batchnorm/sub"], "device": "/device:CPU:0", "attr": {"num_host_args": {"i": "0"}, "data_format": {"s": "TkhXQw=="}, "filter_format": {"s": "SFdJTw=="}, "fused_ops": {"list": {"s": ["Qmlhc0FkZA==", "UmVsdQ=="]}}, "num_args": {"i": "1"}, "strides": {"list": {"i": ["1", "1", "1", "1"]}}, "TArgs": {"list": {"type": ["DT_FLOAT"]}}, "padding": {"s": "VkFMSUQ="}, "use_cudnn_on_gpu": {"b": true}, "leakyrelu_alpha": {"f": 0.2}, "epsilon": {"f": 0.0}, "T": {"type": "DT_FLOAT"}, "explicit_paddings": {"list": {}}, "dilations": {"list": {"i": ["1", "1", "1", "1"]}}}}, {"name": "StatefulPartitionedCall/sequential_1/resnet50v2_1/conv4_block1_2_pad_1/Pad", "op": "Pad", "input": ["StatefulPartitionedCall/sequential_1/resnet50v2_1/conv4_block1_1_relu_1/Relu", "StatefulPartitionedCall/sequential_1/resnet50v2_1/conv4_block1_2_pad_1/Const"], "attr": {"Tpaddings": {"type": "DT_INT32"}, "T": {"type": "DT_FLOAT"}}}, {"name": "StatefulPartitionedCall/sequential_1/resnet50v2_1/conv4_block1_2_relu_1/Relu", "op": "_FusedConv2D", "input": ["StatefulPartitionedCall/sequential_1/resnet50v2_1/conv4_block1_2_pad_1/Pad", "StatefulPartitionedCall/sequential_1/resnet50v2_1/conv4_block1_2_conv_1/convolution/merged_input", "StatefulPartitionedCall/sequential_1/resnet50v2_1/conv4_block1_2_bn_1/batchnorm/sub"], "device": "/device:CPU:0", "attr": {"num_host_args": {"i": "0"}, "data_format": {"s": "TkhXQw=="}, "filter_format": {"s": "SFdJTw=="}, "strides": {"list": {"i": ["1", "1", "1", "1"]}}, "num_args": {"i": "1"}, "fused_ops": {"list": {"s": ["Qmlhc0FkZA==", "UmVsdQ=="]}}, "TArgs": {"list": {"type": ["DT_FLOAT"]}}, "padding": {"s": "VkFMSUQ="}, "use_cudnn_on_gpu": {"b": true}, "leakyrelu_alpha": {"f": 0.2}, "epsilon": {"f": 0.0}, "T": {"type": "DT_FLOAT"}, "explicit_paddings": {"list": {}}, "dilations": {"list": {"i": ["1", "1", "1", "1"]}}}}, {"name": "StatefulPartitionedCall/sequential_1/resnet50v2_1/conv4_block1_3_conv_1/BiasAdd", "op": "_FusedConv2D", "input": ["StatefulPartitionedCall/sequential_1/resnet50v2_1/conv4_block1_2_relu_1/Relu", "StatefulPartitionedCall/sequential_1/resnet50v2_1/conv4_block1_3_conv_1/convolution/ReadVariableOp", "StatefulPartitionedCall/sequential_1/resnet50v2_1/conv4_block1_3_conv_1/Squeeze"], "device": "/device:CPU:0", "attr": {"num_host_args": {"i": "0"}, "data_format": {"s": "TkhXQw=="}, "filter_format": {"s": "SFdJTw=="}, "strides": {"list": {"i": ["1", "1", "1", "1"]}}, "num_args": {"i": "1"}, "fused_ops": {"list": {"s": ["Qmlhc0FkZA=="]}}, "TArgs": {"list": {"type": ["DT_FLOAT"]}}, "padding": {"s": "VkFMSUQ="}, "use_cudnn_on_gpu": {"b": true}, "leakyrelu_alpha": {"f": 0.2}, "epsilon": {"f": 0.0}, "T": {"type": "DT_FLOAT"}, "explicit_paddings": {"list": {}}, "dilations": {"list": {"i": ["1", "1", "1", "1"]}}}}, {"name": "StatefulPartitionedCall/sequential_1/resnet50v2_1/conv4_block1_out_1/Add", "op": "AddV2", "input": ["StatefulPartitionedCall/sequential_1/resnet50v2_1/conv4_block1_0_conv_1/BiasAdd", "StatefulPartitionedCall/sequential_1/resnet50v2_1/conv4_block1_3_conv_1/BiasAdd"], "attr": {"T": {"type": "DT_FLOAT"}}}, {"name": "StatefulPartitionedCall/sequential_1/resnet50v2_1/conv4_block2_preact_bn_1/batchnorm/mul_1", "op": "Mul", "input": ["StatefulPartitionedCall/sequential_1/resnet50v2_1/conv4_block1_out_1/Add", "StatefulPartitionedCall/sequential_1/resnet50v2_1/conv4_block2_preact_bn_1/batchnorm/mul"], "attr": {"T": {"type": "DT_FLOAT"}}}, {"name": "StatefulPartitionedCall/sequential_1/resnet50v2_1/conv4_block2_preact_bn_1/batchnorm/add_1", "op": "AddV2", "input": ["StatefulPartitionedCall/sequential_1/resnet50v2_1/conv4_block2_preact_bn_1/batchnorm/mul_1", "StatefulPartitionedCall/sequential_1/resnet50v2_1/conv4_block2_preact_bn_1/batchnorm/sub"], "attr": {"T": {"type": "DT_FLOAT"}}}, {"name": "StatefulPartitionedCall/sequential_1/resnet50v2_1/conv4_block2_preact_relu_1/Relu", "op": "Relu", "input": ["StatefulPartitionedCall/sequential_1/resnet50v2_1/conv4_block2_preact_bn_1/batchnorm/add_1"], "attr": {"T": {"type": "DT_FLOAT"}}}, {"name": "StatefulPartitionedCall/sequential_1/resnet50v2_1/conv4_block2_1_relu_1/Relu", "op": "_FusedConv2D", "input": ["StatefulPartitionedCall/sequential_1/resnet50v2_1/conv4_block2_preact_relu_1/Relu", "StatefulPartitionedCall/sequential_1/resnet50v2_1/conv4_block2_1_conv_1/convolution/merged_input", "StatefulPartitionedCall/sequential_1/resnet50v2_1/conv4_block2_1_bn_1/batchnorm/sub"], "device": "/device:CPU:0", "attr": {"num_host_args": {"i": "0"}, "data_format": {"s": "TkhXQw=="}, "filter_format": {"s": "SFdJTw=="}, "strides": {"list": {"i": ["1", "1", "1", "1"]}}, "num_args": {"i": "1"}, "fused_ops": {"list": {"s": ["Qmlhc0FkZA==", "UmVsdQ=="]}}, "TArgs": {"list": {"type": ["DT_FLOAT"]}}, "padding": {"s": "VkFMSUQ="}, "use_cudnn_on_gpu": {"b": true}, "leakyrelu_alpha": {"f": 0.2}, "epsilon": {"f": 0.0}, "T": {"type": "DT_FLOAT"}, "explicit_paddings": {"list": {}}, "dilations": {"list": {"i": ["1", "1", "1", "1"]}}}}, {"name": "StatefulPartitionedCall/sequential_1/resnet50v2_1/conv4_block2_2_pad_1/Pad", "op": "Pad", "input": ["StatefulPartitionedCall/sequential_1/resnet50v2_1/conv4_block2_1_relu_1/Relu", "StatefulPartitionedCall/sequential_1/resnet50v2_1/conv4_block2_2_pad_1/Const"], "attr": {"Tpaddings": {"type": "DT_INT32"}, "T": {"type": "DT_FLOAT"}}}, {"name": "StatefulPartitionedCall/sequential_1/resnet50v2_1/conv4_block2_2_relu_1/Relu", "op": "_FusedConv2D", "input": ["StatefulPartitionedCall/sequential_1/resnet50v2_1/conv4_block2_2_pad_1/Pad", "StatefulPartitionedCall/sequential_1/resnet50v2_1/conv4_block2_2_conv_1/convolution/merged_input", "StatefulPartitionedCall/sequential_1/resnet50v2_1/conv4_block2_2_bn_1/batchnorm/sub"], "device": "/device:CPU:0", "attr": {"num_host_args": {"i": "0"}, "data_format": {"s": "TkhXQw=="}, "filter_format": {"s": "SFdJTw=="}, "fused_ops": {"list": {"s": ["Qmlhc0FkZA==", "UmVsdQ=="]}}, "num_args": {"i": "1"}, "strides": {"list": {"i": ["1", "1", "1", "1"]}}, "TArgs": {"list": {"type": ["DT_FLOAT"]}}, "padding": {"s": "VkFMSUQ="}, "use_cudnn_on_gpu": {"b": true}, "leakyrelu_alpha": {"f": 0.2}, "epsilon": {"f": 0.0}, "T": {"type": "DT_FLOAT"}, "explicit_paddings": {"list": {}}, "dilations": {"list": {"i": ["1", "1", "1", "1"]}}}}, {"name": "StatefulPartitionedCall/sequential_1/resnet50v2_1/conv4_block2_3_conv_1/BiasAdd", "op": "_FusedConv2D", "input": ["StatefulPartitionedCall/sequential_1/resnet50v2_1/conv4_block2_2_relu_1/Relu", "StatefulPartitionedCall/sequential_1/resnet50v2_1/conv4_block2_3_conv_1/convolution/ReadVariableOp", "StatefulPartitionedCall/sequential_1/resnet50v2_1/conv4_block2_3_conv_1/Squeeze"], "device": "/device:CPU:0", "attr": {"num_host_args": {"i": "0"}, "data_format": {"s": "TkhXQw=="}, "filter_format": {"s": "SFdJTw=="}, "strides": {"list": {"i": ["1", "1", "1", "1"]}}, "num_args": {"i": "1"}, "fused_ops": {"list": {"s": ["Qmlhc0FkZA=="]}}, "TArgs": {"list": {"type": ["DT_FLOAT"]}}, "padding": {"s": "VkFMSUQ="}, "use_cudnn_on_gpu": {"b": true}, "leakyrelu_alpha": {"f": 0.2}, "epsilon": {"f": 0.0}, "T": {"type": "DT_FLOAT"}, "explicit_paddings": {"list": {}}, "dilations": {"list": {"i": ["1", "1", "1", "1"]}}}}, {"name": "StatefulPartitionedCall/sequential_1/resnet50v2_1/conv4_block2_out_1/Add", "op": "AddV2", "input": ["StatefulPartitionedCall/sequential_1/resnet50v2_1/conv4_block1_out_1/Add", "StatefulPartitionedCall/sequential_1/resnet50v2_1/conv4_block2_3_conv_1/BiasAdd"], "attr": {"T": {"type": "DT_FLOAT"}}}, {"name": "StatefulPartitionedCall/sequential_1/resnet50v2_1/conv4_block3_preact_bn_1/batchnorm/mul_1", "op": "Mul", "input": ["StatefulPartitionedCall/sequential_1/resnet50v2_1/conv4_block2_out_1/Add", "StatefulPartitionedCall/sequential_1/resnet50v2_1/conv4_block3_preact_bn_1/batchnorm/mul"], "attr": {"T": {"type": "DT_FLOAT"}}}, {"name": "StatefulPartitionedCall/sequential_1/resnet50v2_1/conv4_block3_preact_bn_1/batchnorm/add_1", "op": "AddV2", "input": ["StatefulPartitionedCall/sequential_1/resnet50v2_1/conv4_block3_preact_bn_1/batchnorm/mul_1", "StatefulPartitionedCall/sequential_1/resnet50v2_1/conv4_block3_preact_bn_1/batchnorm/sub"], "attr": {"T": {"type": "DT_FLOAT"}}}, {"name": "StatefulPartitionedCall/sequential_1/resnet50v2_1/conv4_block3_preact_relu_1/Relu", "op": "Relu", "input": ["StatefulPartitionedCall/sequential_1/resnet50v2_1/conv4_block3_preact_bn_1/batchnorm/add_1"], "attr": {"T": {"type": "DT_FLOAT"}}}, {"name": "StatefulPartitionedCall/sequential_1/resnet50v2_1/conv4_block3_1_relu_1/Relu", "op": "_FusedConv2D", "input": ["StatefulPartitionedCall/sequential_1/resnet50v2_1/conv4_block3_preact_relu_1/Relu", "StatefulPartitionedCall/sequential_1/resnet50v2_1/conv4_block3_1_conv_1/convolution/merged_input", "StatefulPartitionedCall/sequential_1/resnet50v2_1/conv4_block3_1_bn_1/batchnorm/sub"], "device": "/device:CPU:0", "attr": {"num_host_args": {"i": "0"}, "data_format": {"s": "TkhXQw=="}, "filter_format": {"s": "SFdJTw=="}, "fused_ops": {"list": {"s": ["Qmlhc0FkZA==", "UmVsdQ=="]}}, "num_args": {"i": "1"}, "strides": {"list": {"i": ["1", "1", "1", "1"]}}, "TArgs": {"list": {"type": ["DT_FLOAT"]}}, "padding": {"s": "VkFMSUQ="}, "use_cudnn_on_gpu": {"b": true}, "leakyrelu_alpha": {"f": 0.2}, "epsilon": {"f": 0.0}, "T": {"type": "DT_FLOAT"}, "explicit_paddings": {"list": {}}, "dilations": {"list": {"i": ["1", "1", "1", "1"]}}}}, {"name": "StatefulPartitionedCall/sequential_1/resnet50v2_1/conv4_block3_2_pad_1/Pad", "op": "Pad", "input": ["StatefulPartitionedCall/sequential_1/resnet50v2_1/conv4_block3_1_relu_1/Relu", "StatefulPartitionedCall/sequential_1/resnet50v2_1/conv4_block3_2_pad_1/Const"], "attr": {"Tpaddings": {"type": "DT_INT32"}, "T": {"type": "DT_FLOAT"}}}, {"name": "StatefulPartitionedCall/sequential_1/resnet50v2_1/conv4_block3_2_relu_1/Relu", "op": "_FusedConv2D", "input": ["StatefulPartitionedCall/sequential_1/resnet50v2_1/conv4_block3_2_pad_1/Pad", "StatefulPartitionedCall/sequential_1/resnet50v2_1/conv4_block3_2_conv_1/convolution/merged_input", "StatefulPartitionedCall/sequential_1/resnet50v2_1/conv4_block3_2_bn_1/batchnorm/sub"], "device": "/device:CPU:0", "attr": {"num_host_args": {"i": "0"}, "data_format": {"s": "TkhXQw=="}, "filter_format": {"s": "SFdJTw=="}, "fused_ops": {"list": {"s": ["Qmlhc0FkZA==", "UmVsdQ=="]}}, "num_args": {"i": "1"}, "strides": {"list": {"i": ["1", "1", "1", "1"]}}, "TArgs": {"list": {"type": ["DT_FLOAT"]}}, "padding": {"s": "VkFMSUQ="}, "use_cudnn_on_gpu": {"b": true}, "leakyrelu_alpha": {"f": 0.2}, "epsilon": {"f": 0.0}, "T": {"type": "DT_FLOAT"}, "explicit_paddings": {"list": {}}, "dilations": {"list": {"i": ["1", "1", "1", "1"]}}}}, {"name": "StatefulPartitionedCall/sequential_1/resnet50v2_1/conv4_block3_3_conv_1/BiasAdd", "op": "_FusedConv2D", "input": ["StatefulPartitionedCall/sequential_1/resnet50v2_1/conv4_block3_2_relu_1/Relu", "StatefulPartitionedCall/sequential_1/resnet50v2_1/conv4_block3_3_conv_1/convolution/ReadVariableOp", "StatefulPartitionedCall/sequential_1/resnet50v2_1/conv4_block3_3_conv_1/Squeeze"], "device": "/device:CPU:0", "attr": {"num_host_args": {"i": "0"}, "data_format": {"s": "TkhXQw=="}, "filter_format": {"s": "SFdJTw=="}, "strides": {"list": {"i": ["1", "1", "1", "1"]}}, "num_args": {"i": "1"}, "fused_ops": {"list": {"s": ["Qmlhc0FkZA=="]}}, "TArgs": {"list": {"type": ["DT_FLOAT"]}}, "padding": {"s": "VkFMSUQ="}, "use_cudnn_on_gpu": {"b": true}, "leakyrelu_alpha": {"f": 0.2}, "epsilon": {"f": 0.0}, "T": {"type": "DT_FLOAT"}, "explicit_paddings": {"list": {}}, "dilations": {"list": {"i": ["1", "1", "1", "1"]}}}}, {"name": "StatefulPartitionedCall/sequential_1/resnet50v2_1/conv4_block3_out_1/Add", "op": "AddV2", "input": ["StatefulPartitionedCall/sequential_1/resnet50v2_1/conv4_block2_out_1/Add", "StatefulPartitionedCall/sequential_1/resnet50v2_1/conv4_block3_3_conv_1/BiasAdd"], "attr": {"T": {"type": "DT_FLOAT"}}}, {"name": "StatefulPartitionedCall/sequential_1/resnet50v2_1/conv4_block4_preact_bn_1/batchnorm/mul_1", "op": "Mul", "input": ["StatefulPartitionedCall/sequential_1/resnet50v2_1/conv4_block3_out_1/Add", "StatefulPartitionedCall/sequential_1/resnet50v2_1/conv4_block4_preact_bn_1/batchnorm/mul"], "attr": {"T": {"type": "DT_FLOAT"}}}, {"name": "StatefulPartitionedCall/sequential_1/resnet50v2_1/conv4_block4_preact_bn_1/batchnorm/add_1", "op": "AddV2", "input": ["StatefulPartitionedCall/sequential_1/resnet50v2_1/conv4_block4_preact_bn_1/batchnorm/mul_1", "StatefulPartitionedCall/sequential_1/resnet50v2_1/conv4_block4_preact_bn_1/batchnorm/sub"], "attr": {"T": {"type": "DT_FLOAT"}}}, {"name": "StatefulPartitionedCall/sequential_1/resnet50v2_1/conv4_block4_preact_relu_1/Relu", "op": "Relu", "input": ["StatefulPartitionedCall/sequential_1/resnet50v2_1/conv4_block4_preact_bn_1/batchnorm/add_1"], "attr": {"T": {"type": "DT_FLOAT"}}}, {"name": "StatefulPartitionedCall/sequential_1/resnet50v2_1/conv4_block4_1_relu_1/Relu", "op": "_FusedConv2D", "input": ["StatefulPartitionedCall/sequential_1/resnet50v2_1/conv4_block4_preact_relu_1/Relu", "StatefulPartitionedCall/sequential_1/resnet50v2_1/conv4_block4_1_conv_1/convolution/merged_input", "StatefulPartitionedCall/sequential_1/resnet50v2_1/conv4_block4_1_bn_1/batchnorm/sub"], "device": "/device:CPU:0", "attr": {"num_host_args": {"i": "0"}, "data_format": {"s": "TkhXQw=="}, "filter_format": {"s": "SFdJTw=="}, "fused_ops": {"list": {"s": ["Qmlhc0FkZA==", "UmVsdQ=="]}}, "num_args": {"i": "1"}, "strides": {"list": {"i": ["1", "1", "1", "1"]}}, "TArgs": {"list": {"type": ["DT_FLOAT"]}}, "padding": {"s": "VkFMSUQ="}, "use_cudnn_on_gpu": {"b": true}, "leakyrelu_alpha": {"f": 0.2}, "epsilon": {"f": 0.0}, "T": {"type": "DT_FLOAT"}, "explicit_paddings": {"list": {}}, "dilations": {"list": {"i": ["1", "1", "1", "1"]}}}}, {"name": "StatefulPartitionedCall/sequential_1/resnet50v2_1/conv4_block4_2_pad_1/Pad", "op": "Pad", "input": ["StatefulPartitionedCall/sequential_1/resnet50v2_1/conv4_block4_1_relu_1/Relu", "StatefulPartitionedCall/sequential_1/resnet50v2_1/conv4_block4_2_pad_1/Const"], "attr": {"Tpaddings": {"type": "DT_INT32"}, "T": {"type": "DT_FLOAT"}}}, {"name": "StatefulPartitionedCall/sequential_1/resnet50v2_1/conv4_block4_2_relu_1/Relu", "op": "_FusedConv2D", "input": ["StatefulPartitionedCall/sequential_1/resnet50v2_1/conv4_block4_2_pad_1/Pad", "StatefulPartitionedCall/sequential_1/resnet50v2_1/conv4_block4_2_conv_1/convolution/merged_input", "StatefulPartitionedCall/sequential_1/resnet50v2_1/conv4_block4_2_bn_1/batchnorm/sub"], "device": "/device:CPU:0", "attr": {"num_host_args": {"i": "0"}, "data_format": {"s": "TkhXQw=="}, "filter_format": {"s": "SFdJTw=="}, "fused_ops": {"list": {"s": ["Qmlhc0FkZA==", "UmVsdQ=="]}}, "num_args": {"i": "1"}, "strides": {"list": {"i": ["1", "1", "1", "1"]}}, "TArgs": {"list": {"type": ["DT_FLOAT"]}}, "padding": {"s": "VkFMSUQ="}, "use_cudnn_on_gpu": {"b": true}, "leakyrelu_alpha": {"f": 0.2}, "epsilon": {"f": 0.0}, "T": {"type": "DT_FLOAT"}, "explicit_paddings": {"list": {}}, "dilations": {"list": {"i": ["1", "1", "1", "1"]}}}}, {"name": "StatefulPartitionedCall/sequential_1/resnet50v2_1/conv4_block4_3_conv_1/BiasAdd", "op": "_FusedConv2D", "input": ["StatefulPartitionedCall/sequential_1/resnet50v2_1/conv4_block4_2_relu_1/Relu", "StatefulPartitionedCall/sequential_1/resnet50v2_1/conv4_block4_3_conv_1/convolution/ReadVariableOp", "StatefulPartitionedCall/sequential_1/resnet50v2_1/conv4_block4_3_conv_1/Squeeze"], "device": "/device:CPU:0", "attr": {"num_host_args": {"i": "0"}, "data_format": {"s": "TkhXQw=="}, "filter_format": {"s": "SFdJTw=="}, "fused_ops": {"list": {"s": ["Qmlhc0FkZA=="]}}, "num_args": {"i": "1"}, "strides": {"list": {"i": ["1", "1", "1", "1"]}}, "TArgs": {"list": {"type": ["DT_FLOAT"]}}, "padding": {"s": "VkFMSUQ="}, "use_cudnn_on_gpu": {"b": true}, "leakyrelu_alpha": {"f": 0.2}, "epsilon": {"f": 0.0}, "T": {"type": "DT_FLOAT"}, "explicit_paddings": {"list": {}}, "dilations": {"list": {"i": ["1", "1", "1", "1"]}}}}, {"name": "StatefulPartitionedCall/sequential_1/resnet50v2_1/conv4_block4_out_1/Add", "op": "AddV2", "input": ["StatefulPartitionedCall/sequential_1/resnet50v2_1/conv4_block3_out_1/Add", "StatefulPartitionedCall/sequential_1/resnet50v2_1/conv4_block4_3_conv_1/BiasAdd"], "attr": {"T": {"type": "DT_FLOAT"}}}, {"name": "StatefulPartitionedCall/sequential_1/resnet50v2_1/conv4_block5_preact_bn_1/batchnorm/mul_1", "op": "Mul", "input": ["StatefulPartitionedCall/sequential_1/resnet50v2_1/conv4_block4_out_1/Add", "StatefulPartitionedCall/sequential_1/resnet50v2_1/conv4_block5_preact_bn_1/batchnorm/mul"], "attr": {"T": {"type": "DT_FLOAT"}}}, {"name": "StatefulPartitionedCall/sequential_1/resnet50v2_1/conv4_block5_preact_bn_1/batchnorm/add_1", "op": "AddV2", "input": ["StatefulPartitionedCall/sequential_1/resnet50v2_1/conv4_block5_preact_bn_1/batchnorm/mul_1", "StatefulPartitionedCall/sequential_1/resnet50v2_1/conv4_block5_preact_bn_1/batchnorm/sub"], "attr": {"T": {"type": "DT_FLOAT"}}}, {"name": "StatefulPartitionedCall/sequential_1/resnet50v2_1/conv4_block5_preact_relu_1/Relu", "op": "Relu", "input": ["StatefulPartitionedCall/sequential_1/resnet50v2_1/conv4_block5_preact_bn_1/batchnorm/add_1"], "attr": {"T": {"type": "DT_FLOAT"}}}, {"name": "StatefulPartitionedCall/sequential_1/resnet50v2_1/conv4_block5_1_relu_1/Relu", "op": "_FusedConv2D", "input": ["StatefulPartitionedCall/sequential_1/resnet50v2_1/conv4_block5_preact_relu_1/Relu", "StatefulPartitionedCall/sequential_1/resnet50v2_1/conv4_block5_1_conv_1/convolution/merged_input", "StatefulPartitionedCall/sequential_1/resnet50v2_1/conv4_block5_1_bn_1/batchnorm/sub"], "device": "/device:CPU:0", "attr": {"num_host_args": {"i": "0"}, "data_format": {"s": "TkhXQw=="}, "filter_format": {"s": "SFdJTw=="}, "fused_ops": {"list": {"s": ["Qmlhc0FkZA==", "UmVsdQ=="]}}, "num_args": {"i": "1"}, "strides": {"list": {"i": ["1", "1", "1", "1"]}}, "TArgs": {"list": {"type": ["DT_FLOAT"]}}, "padding": {"s": "VkFMSUQ="}, "use_cudnn_on_gpu": {"b": true}, "leakyrelu_alpha": {"f": 0.2}, "epsilon": {"f": 0.0}, "T": {"type": "DT_FLOAT"}, "explicit_paddings": {"list": {}}, "dilations": {"list": {"i": ["1", "1", "1", "1"]}}}}, {"name": "StatefulPartitionedCall/sequential_1/resnet50v2_1/conv4_block5_2_pad_1/Pad", "op": "Pad", "input": ["StatefulPartitionedCall/sequential_1/resnet50v2_1/conv4_block5_1_relu_1/Relu", "StatefulPartitionedCall/sequential_1/resnet50v2_1/conv4_block5_2_pad_1/Const"], "attr": {"Tpaddings": {"type": "DT_INT32"}, "T": {"type": "DT_FLOAT"}}}, {"name": "StatefulPartitionedCall/sequential_1/resnet50v2_1/conv4_block5_2_relu_1/Relu", "op": "_FusedConv2D", "input": ["StatefulPartitionedCall/sequential_1/resnet50v2_1/conv4_block5_2_pad_1/Pad", "StatefulPartitionedCall/sequential_1/resnet50v2_1/conv4_block5_2_conv_1/convolution/merged_input", "StatefulPartitionedCall/sequential_1/resnet50v2_1/conv4_block5_2_bn_1/batchnorm/sub"], "device": "/device:CPU:0", "attr": {"num_host_args": {"i": "0"}, "data_format": {"s": "TkhXQw=="}, "filter_format": {"s": "SFdJTw=="}, "fused_ops": {"list": {"s": ["Qmlhc0FkZA==", "UmVsdQ=="]}}, "num_args": {"i": "1"}, "strides": {"list": {"i": ["1", "1", "1", "1"]}}, "TArgs": {"list": {"type": ["DT_FLOAT"]}}, "padding": {"s": "VkFMSUQ="}, "use_cudnn_on_gpu": {"b": true}, "leakyrelu_alpha": {"f": 0.2}, "epsilon": {"f": 0.0}, "T": {"type": "DT_FLOAT"}, "explicit_paddings": {"list": {}}, "dilations": {"list": {"i": ["1", "1", "1", "1"]}}}}, {"name": "StatefulPartitionedCall/sequential_1/resnet50v2_1/conv4_block5_3_conv_1/BiasAdd", "op": "_FusedConv2D", "input": ["StatefulPartitionedCall/sequential_1/resnet50v2_1/conv4_block5_2_relu_1/Relu", "StatefulPartitionedCall/sequential_1/resnet50v2_1/conv4_block5_3_conv_1/convolution/ReadVariableOp", "StatefulPartitionedCall/sequential_1/resnet50v2_1/conv4_block5_3_conv_1/Squeeze"], "device": "/device:CPU:0", "attr": {"num_host_args": {"i": "0"}, "data_format": {"s": "TkhXQw=="}, "filter_format": {"s": "SFdJTw=="}, "strides": {"list": {"i": ["1", "1", "1", "1"]}}, "num_args": {"i": "1"}, "fused_ops": {"list": {"s": ["Qmlhc0FkZA=="]}}, "TArgs": {"list": {"type": ["DT_FLOAT"]}}, "padding": {"s": "VkFMSUQ="}, "use_cudnn_on_gpu": {"b": true}, "leakyrelu_alpha": {"f": 0.2}, "epsilon": {"f": 0.0}, "T": {"type": "DT_FLOAT"}, "explicit_paddings": {"list": {}}, "dilations": {"list": {"i": ["1", "1", "1", "1"]}}}}, {"name": "StatefulPartitionedCall/sequential_1/resnet50v2_1/conv4_block5_out_1/Add", "op": "AddV2", "input": ["StatefulPartitionedCall/sequential_1/resnet50v2_1/conv4_block4_out_1/Add", "StatefulPartitionedCall/sequential_1/resnet50v2_1/conv4_block5_3_conv_1/BiasAdd"], "attr": {"T": {"type": "DT_FLOAT"}}}, {"name": "StatefulPartitionedCall/sequential_1/resnet50v2_1/max_pooling2d_2_1/MaxPool2d", "op": "MaxPool", "input": ["StatefulPartitionedCall/sequential_1/resnet50v2_1/conv4_block5_out_1/Add"], "attr": {"ksize": {"list": {"i": ["1", "1", "1", "1"]}}, "data_format": {"s": "TkhXQw=="}, "T": {"type": "DT_FLOAT"}, "explicit_paddings": {"list": {}}, "padding": {"s": "VkFMSUQ="}, "strides": {"list": {"i": ["1", "2", "2", "1"]}}}}, {"name": "StatefulPartitionedCall/sequential_1/resnet50v2_1/conv4_block6_preact_bn_1/batchnorm/mul_1", "op": "Mul", "input": ["StatefulPartitionedCall/sequential_1/resnet50v2_1/conv4_block5_out_1/Add", "StatefulPartitionedCall/sequential_1/resnet50v2_1/conv4_block6_preact_bn_1/batchnorm/mul"], "attr": {"T": {"type": "DT_FLOAT"}}}, {"name": "StatefulPartitionedCall/sequential_1/resnet50v2_1/conv4_block6_preact_bn_1/batchnorm/add_1", "op": "AddV2", "input": ["StatefulPartitionedCall/sequential_1/resnet50v2_1/conv4_block6_preact_bn_1/batchnorm/mul_1", "StatefulPartitionedCall/sequential_1/resnet50v2_1/conv4_block6_preact_bn_1/batchnorm/sub"], "attr": {"T": {"type": "DT_FLOAT"}}}, {"name": "StatefulPartitionedCall/sequential_1/resnet50v2_1/conv4_block6_preact_relu_1/Relu", "op": "Relu", "input": ["StatefulPartitionedCall/sequential_1/resnet50v2_1/conv4_block6_preact_bn_1/batchnorm/add_1"], "attr": {"T": {"type": "DT_FLOAT"}}}, {"name": "StatefulPartitionedCall/sequential_1/resnet50v2_1/conv4_block6_1_relu_1/Relu", "op": "_FusedConv2D", "input": ["StatefulPartitionedCall/sequential_1/resnet50v2_1/conv4_block6_preact_relu_1/Relu", "StatefulPartitionedCall/sequential_1/resnet50v2_1/conv4_block6_1_conv_1/convolution/merged_input", "StatefulPartitionedCall/sequential_1/resnet50v2_1/conv4_block6_1_bn_1/batchnorm/sub"], "device": "/device:CPU:0", "attr": {"num_host_args": {"i": "0"}, "data_format": {"s": "TkhXQw=="}, "filter_format": {"s": "SFdJTw=="}, "strides": {"list": {"i": ["1", "1", "1", "1"]}}, "num_args": {"i": "1"}, "fused_ops": {"list": {"s": ["Qmlhc0FkZA==", "UmVsdQ=="]}}, "TArgs": {"list": {"type": ["DT_FLOAT"]}}, "padding": {"s": "VkFMSUQ="}, "use_cudnn_on_gpu": {"b": true}, "leakyrelu_alpha": {"f": 0.2}, "epsilon": {"f": 0.0}, "T": {"type": "DT_FLOAT"}, "explicit_paddings": {"list": {}}, "dilations": {"list": {"i": ["1", "1", "1", "1"]}}}}, {"name": "StatefulPartitionedCall/sequential_1/resnet50v2_1/conv4_block6_2_pad_1/Pad", "op": "Pad", "input": ["StatefulPartitionedCall/sequential_1/resnet50v2_1/conv4_block6_1_relu_1/Relu", "StatefulPartitionedCall/sequential_1/resnet50v2_1/conv4_block6_2_pad_1/Const"], "attr": {"Tpaddings": {"type": "DT_INT32"}, "T": {"type": "DT_FLOAT"}}}, {"name": "StatefulPartitionedCall/sequential_1/resnet50v2_1/conv4_block6_2_relu_1/Relu", "op": "_FusedConv2D", "input": ["StatefulPartitionedCall/sequential_1/resnet50v2_1/conv4_block6_2_pad_1/Pad", "StatefulPartitionedCall/sequential_1/resnet50v2_1/conv4_block6_2_conv_1/convolution/merged_input", "StatefulPartitionedCall/sequential_1/resnet50v2_1/conv4_block6_2_bn_1/batchnorm/sub"], "device": "/device:CPU:0", "attr": {"num_host_args": {"i": "0"}, "data_format": {"s": "TkhXQw=="}, "filter_format": {"s": "SFdJTw=="}, "fused_ops": {"list": {"s": ["Qmlhc0FkZA==", "UmVsdQ=="]}}, "num_args": {"i": "1"}, "strides": {"list": {"i": ["1", "2", "2", "1"]}}, "TArgs": {"list": {"type": ["DT_FLOAT"]}}, "padding": {"s": "VkFMSUQ="}, "use_cudnn_on_gpu": {"b": true}, "leakyrelu_alpha": {"f": 0.2}, "epsilon": {"f": 0.0}, "T": {"type": "DT_FLOAT"}, "explicit_paddings": {"list": {}}, "dilations": {"list": {"i": ["1", "1", "1", "1"]}}}}, {"name": "StatefulPartitionedCall/sequential_1/resnet50v2_1/conv4_block6_3_conv_1/BiasAdd", "op": "_FusedConv2D", "input": ["StatefulPartitionedCall/sequential_1/resnet50v2_1/conv4_block6_2_relu_1/Relu", "StatefulPartitionedCall/sequential_1/resnet50v2_1/conv4_block6_3_conv_1/convolution/ReadVariableOp", "StatefulPartitionedCall/sequential_1/resnet50v2_1/conv4_block6_3_conv_1/Squeeze"], "device": "/device:CPU:0", "attr": {"num_host_args": {"i": "0"}, "data_format": {"s": "TkhXQw=="}, "filter_format": {"s": "SFdJTw=="}, "fused_ops": {"list": {"s": ["Qmlhc0FkZA=="]}}, "num_args": {"i": "1"}, "strides": {"list": {"i": ["1", "1", "1", "1"]}}, "TArgs": {"list": {"type": ["DT_FLOAT"]}}, "padding": {"s": "VkFMSUQ="}, "use_cudnn_on_gpu": {"b": true}, "leakyrelu_alpha": {"f": 0.2}, "epsilon": {"f": 0.0}, "T": {"type": "DT_FLOAT"}, "explicit_paddings": {"list": {}}, "dilations": {"list": {"i": ["1", "1", "1", "1"]}}}}, {"name": "StatefulPartitionedCall/sequential_1/resnet50v2_1/conv4_block6_out_1/Add", "op": "AddV2", "input": ["StatefulPartitionedCall/sequential_1/resnet50v2_1/max_pooling2d_2_1/MaxPool2d", "StatefulPartitionedCall/sequential_1/resnet50v2_1/conv4_block6_3_conv_1/BiasAdd"], "attr": {"T": {"type": "DT_FLOAT"}}}, {"name": "StatefulPartitionedCall/sequential_1/resnet50v2_1/conv5_block1_preact_bn_1/batchnorm/mul_1", "op": "Mul", "input": ["StatefulPartitionedCall/sequential_1/resnet50v2_1/conv4_block6_out_1/Add", "StatefulPartitionedCall/sequential_1/resnet50v2_1/conv5_block1_preact_bn_1/batchnorm/mul"], "attr": {"T": {"type": "DT_FLOAT"}}}, {"name": "StatefulPartitionedCall/sequential_1/resnet50v2_1/conv5_block1_preact_bn_1/batchnorm/add_1", "op": "AddV2", "input": ["StatefulPartitionedCall/sequential_1/resnet50v2_1/conv5_block1_preact_bn_1/batchnorm/mul_1", "StatefulPartitionedCall/sequential_1/resnet50v2_1/conv5_block1_preact_bn_1/batchnorm/sub"], "attr": {"T": {"type": "DT_FLOAT"}}}, {"name": "StatefulPartitionedCall/sequential_1/resnet50v2_1/conv5_block1_preact_relu_1/Relu", "op": "Relu", "input": ["StatefulPartitionedCall/sequential_1/resnet50v2_1/conv5_block1_preact_bn_1/batchnorm/add_1"], "attr": {"T": {"type": "DT_FLOAT"}}}, {"name": "StatefulPartitionedCall/sequential_1/resnet50v2_1/conv5_block1_0_conv_1/BiasAdd", "op": "_FusedConv2D", "input": ["StatefulPartitionedCall/sequential_1/resnet50v2_1/conv5_block1_preact_relu_1/Relu", "StatefulPartitionedCall/sequential_1/resnet50v2_1/conv5_block1_0_conv_1/convolution/ReadVariableOp", "StatefulPartitionedCall/sequential_1/resnet50v2_1/conv5_block1_0_conv_1/Squeeze"], "device": "/device:CPU:0", "attr": {"num_host_args": {"i": "0"}, "data_format": {"s": "TkhXQw=="}, "filter_format": {"s": "SFdJTw=="}, "fused_ops": {"list": {"s": ["Qmlhc0FkZA=="]}}, "num_args": {"i": "1"}, "strides": {"list": {"i": ["1", "1", "1", "1"]}}, "TArgs": {"list": {"type": ["DT_FLOAT"]}}, "padding": {"s": "VkFMSUQ="}, "use_cudnn_on_gpu": {"b": true}, "leakyrelu_alpha": {"f": 0.2}, "epsilon": {"f": 0.0}, "T": {"type": "DT_FLOAT"}, "explicit_paddings": {"list": {}}, "dilations": {"list": {"i": ["1", "1", "1", "1"]}}}}, {"name": "StatefulPartitionedCall/sequential_1/resnet50v2_1/conv5_block1_1_relu_1/Relu", "op": "_FusedConv2D", "input": ["StatefulPartitionedCall/sequential_1/resnet50v2_1/conv5_block1_preact_relu_1/Relu", "StatefulPartitionedCall/sequential_1/resnet50v2_1/conv5_block1_1_conv_1/convolution/merged_input", "StatefulPartitionedCall/sequential_1/resnet50v2_1/conv5_block1_1_bn_1/batchnorm/sub"], "device": "/device:CPU:0", "attr": {"num_host_args": {"i": "0"}, "data_format": {"s": "TkhXQw=="}, "filter_format": {"s": "SFdJTw=="}, "fused_ops": {"list": {"s": ["Qmlhc0FkZA==", "UmVsdQ=="]}}, "num_args": {"i": "1"}, "strides": {"list": {"i": ["1", "1", "1", "1"]}}, "TArgs": {"list": {"type": ["DT_FLOAT"]}}, "padding": {"s": "VkFMSUQ="}, "use_cudnn_on_gpu": {"b": true}, "leakyrelu_alpha": {"f": 0.2}, "epsilon": {"f": 0.0}, "T": {"type": "DT_FLOAT"}, "explicit_paddings": {"list": {}}, "dilations": {"list": {"i": ["1", "1", "1", "1"]}}}}, {"name": "StatefulPartitionedCall/sequential_1/resnet50v2_1/conv5_block1_2_pad_1/Pad", "op": "Pad", "input": ["StatefulPartitionedCall/sequential_1/resnet50v2_1/conv5_block1_1_relu_1/Relu", "StatefulPartitionedCall/sequential_1/resnet50v2_1/conv5_block1_2_pad_1/Const"], "attr": {"Tpaddings": {"type": "DT_INT32"}, "T": {"type": "DT_FLOAT"}}}, {"name": "StatefulPartitionedCall/sequential_1/resnet50v2_1/conv5_block1_2_relu_1/Relu", "op": "_FusedConv2D", "input": ["StatefulPartitionedCall/sequential_1/resnet50v2_1/conv5_block1_2_pad_1/Pad", "StatefulPartitionedCall/sequential_1/resnet50v2_1/conv5_block1_2_conv_1/convolution/merged_input", "StatefulPartitionedCall/sequential_1/resnet50v2_1/conv5_block1_2_bn_1/batchnorm/sub"], "device": "/device:CPU:0", "attr": {"num_host_args": {"i": "0"}, "data_format": {"s": "TkhXQw=="}, "filter_format": {"s": "SFdJTw=="}, "strides": {"list": {"i": ["1", "1", "1", "1"]}}, "num_args": {"i": "1"}, "fused_ops": {"list": {"s": ["Qmlhc0FkZA==", "UmVsdQ=="]}}, "TArgs": {"list": {"type": ["DT_FLOAT"]}}, "padding": {"s": "VkFMSUQ="}, "use_cudnn_on_gpu": {"b": true}, "leakyrelu_alpha": {"f": 0.2}, "epsilon": {"f": 0.0}, "T": {"type": "DT_FLOAT"}, "explicit_paddings": {"list": {}}, "dilations": {"list": {"i": ["1", "1", "1", "1"]}}}}, {"name": "StatefulPartitionedCall/sequential_1/resnet50v2_1/conv5_block1_3_conv_1/BiasAdd", "op": "_FusedConv2D", "input": ["StatefulPartitionedCall/sequential_1/resnet50v2_1/conv5_block1_2_relu_1/Relu", "StatefulPartitionedCall/sequential_1/resnet50v2_1/conv5_block1_3_conv_1/convolution/ReadVariableOp", "StatefulPartitionedCall/sequential_1/resnet50v2_1/conv5_block1_3_conv_1/Squeeze"], "device": "/device:CPU:0", "attr": {"num_host_args": {"i": "0"}, "data_format": {"s": "TkhXQw=="}, "filter_format": {"s": "SFdJTw=="}, "strides": {"list": {"i": ["1", "1", "1", "1"]}}, "num_args": {"i": "1"}, "fused_ops": {"list": {"s": ["Qmlhc0FkZA=="]}}, "TArgs": {"list": {"type": ["DT_FLOAT"]}}, "padding": {"s": "VkFMSUQ="}, "use_cudnn_on_gpu": {"b": true}, "leakyrelu_alpha": {"f": 0.2}, "epsilon": {"f": 0.0}, "T": {"type": "DT_FLOAT"}, "explicit_paddings": {"list": {}}, "dilations": {"list": {"i": ["1", "1", "1", "1"]}}}}, {"name": "StatefulPartitionedCall/sequential_1/resnet50v2_1/conv5_block1_out_1/Add", "op": "AddV2", "input": ["StatefulPartitionedCall/sequential_1/resnet50v2_1/conv5_block1_0_conv_1/BiasAdd", "StatefulPartitionedCall/sequential_1/resnet50v2_1/conv5_block1_3_conv_1/BiasAdd"], "attr": {"T": {"type": "DT_FLOAT"}}}, {"name": "StatefulPartitionedCall/sequential_1/resnet50v2_1/conv5_block2_preact_bn_1/batchnorm/mul_1", "op": "Mul", "input": ["StatefulPartitionedCall/sequential_1/resnet50v2_1/conv5_block1_out_1/Add", "StatefulPartitionedCall/sequential_1/resnet50v2_1/conv5_block2_preact_bn_1/batchnorm/mul"], "attr": {"T": {"type": "DT_FLOAT"}}}, {"name": "StatefulPartitionedCall/sequential_1/resnet50v2_1/conv5_block2_preact_bn_1/batchnorm/add_1", "op": "AddV2", "input": ["StatefulPartitionedCall/sequential_1/resnet50v2_1/conv5_block2_preact_bn_1/batchnorm/mul_1", "StatefulPartitionedCall/sequential_1/resnet50v2_1/conv5_block2_preact_bn_1/batchnorm/sub"], "attr": {"T": {"type": "DT_FLOAT"}}}, {"name": "StatefulPartitionedCall/sequential_1/resnet50v2_1/conv5_block2_preact_relu_1/Relu", "op": "Relu", "input": ["StatefulPartitionedCall/sequential_1/resnet50v2_1/conv5_block2_preact_bn_1/batchnorm/add_1"], "attr": {"T": {"type": "DT_FLOAT"}}}, {"name": "StatefulPartitionedCall/sequential_1/resnet50v2_1/conv5_block2_1_relu_1/Relu", "op": "_FusedConv2D", "input": ["StatefulPartitionedCall/sequential_1/resnet50v2_1/conv5_block2_preact_relu_1/Relu", "StatefulPartitionedCall/sequential_1/resnet50v2_1/conv5_block2_1_conv_1/convolution/merged_input", "StatefulPartitionedCall/sequential_1/resnet50v2_1/conv5_block2_1_bn_1/batchnorm/sub"], "device": "/device:CPU:0", "attr": {"num_host_args": {"i": "0"}, "data_format": {"s": "TkhXQw=="}, "filter_format": {"s": "SFdJTw=="}, "strides": {"list": {"i": ["1", "1", "1", "1"]}}, "num_args": {"i": "1"}, "fused_ops": {"list": {"s": ["Qmlhc0FkZA==", "UmVsdQ=="]}}, "TArgs": {"list": {"type": ["DT_FLOAT"]}}, "padding": {"s": "VkFMSUQ="}, "use_cudnn_on_gpu": {"b": true}, "leakyrelu_alpha": {"f": 0.2}, "epsilon": {"f": 0.0}, "T": {"type": "DT_FLOAT"}, "explicit_paddings": {"list": {}}, "dilations": {"list": {"i": ["1", "1", "1", "1"]}}}}, {"name": "StatefulPartitionedCall/sequential_1/resnet50v2_1/conv5_block2_2_pad_1/Pad", "op": "Pad", "input": ["StatefulPartitionedCall/sequential_1/resnet50v2_1/conv5_block2_1_relu_1/Relu", "StatefulPartitionedCall/sequential_1/resnet50v2_1/conv5_block2_2_pad_1/Const"], "attr": {"Tpaddings": {"type": "DT_INT32"}, "T": {"type": "DT_FLOAT"}}}, {"name": "StatefulPartitionedCall/sequential_1/resnet50v2_1/conv5_block2_2_relu_1/Relu", "op": "_FusedConv2D", "input": ["StatefulPartitionedCall/sequential_1/resnet50v2_1/conv5_block2_2_pad_1/Pad", "StatefulPartitionedCall/sequential_1/resnet50v2_1/conv5_block2_2_conv_1/convolution/merged_input", "StatefulPartitionedCall/sequential_1/resnet50v2_1/conv5_block2_2_bn_1/batchnorm/sub"], "device": "/device:CPU:0", "attr": {"num_host_args": {"i": "0"}, "data_format": {"s": "TkhXQw=="}, "filter_format": {"s": "SFdJTw=="}, "fused_ops": {"list": {"s": ["Qmlhc0FkZA==", "UmVsdQ=="]}}, "num_args": {"i": "1"}, "strides": {"list": {"i": ["1", "1", "1", "1"]}}, "TArgs": {"list": {"type": ["DT_FLOAT"]}}, "padding": {"s": "VkFMSUQ="}, "use_cudnn_on_gpu": {"b": true}, "leakyrelu_alpha": {"f": 0.2}, "epsilon": {"f": 0.0}, "T": {"type": "DT_FLOAT"}, "explicit_paddings": {"list": {}}, "dilations": {"list": {"i": ["1", "1", "1", "1"]}}}}, {"name": "StatefulPartitionedCall/sequential_1/resnet50v2_1/conv5_block2_3_conv_1/BiasAdd", "op": "_FusedConv2D", "input": ["StatefulPartitionedCall/sequential_1/resnet50v2_1/conv5_block2_2_relu_1/Relu", "StatefulPartitionedCall/sequential_1/resnet50v2_1/conv5_block2_3_conv_1/convolution/ReadVariableOp", "StatefulPartitionedCall/sequential_1/resnet50v2_1/conv5_block2_3_conv_1/Squeeze"], "device": "/device:CPU:0", "attr": {"num_host_args": {"i": "0"}, "data_format": {"s": "TkhXQw=="}, "filter_format": {"s": "SFdJTw=="}, "fused_ops": {"list": {"s": ["Qmlhc0FkZA=="]}}, "num_args": {"i": "1"}, "strides": {"list": {"i": ["1", "1", "1", "1"]}}, "TArgs": {"list": {"type": ["DT_FLOAT"]}}, "padding": {"s": "VkFMSUQ="}, "use_cudnn_on_gpu": {"b": true}, "leakyrelu_alpha": {"f": 0.2}, "epsilon": {"f": 0.0}, "T": {"type": "DT_FLOAT"}, "explicit_paddings": {"list": {}}, "dilations": {"list": {"i": ["1", "1", "1", "1"]}}}}, {"name": "StatefulPartitionedCall/sequential_1/resnet50v2_1/conv5_block2_out_1/Add", "op": "AddV2", "input": ["StatefulPartitionedCall/sequential_1/resnet50v2_1/conv5_block1_out_1/Add", "StatefulPartitionedCall/sequential_1/resnet50v2_1/conv5_block2_3_conv_1/BiasAdd"], "attr": {"T": {"type": "DT_FLOAT"}}}, {"name": "StatefulPartitionedCall/sequential_1/resnet50v2_1/conv5_block3_preact_bn_1/batchnorm/mul_1", "op": "Mul", "input": ["StatefulPartitionedCall/sequential_1/resnet50v2_1/conv5_block2_out_1/Add", "StatefulPartitionedCall/sequential_1/resnet50v2_1/conv5_block3_preact_bn_1/batchnorm/mul"], "attr": {"T": {"type": "DT_FLOAT"}}}, {"name": "StatefulPartitionedCall/sequential_1/resnet50v2_1/conv5_block3_preact_bn_1/batchnorm/add_1", "op": "AddV2", "input": ["StatefulPartitionedCall/sequential_1/resnet50v2_1/conv5_block3_preact_bn_1/batchnorm/mul_1", "StatefulPartitionedCall/sequential_1/resnet50v2_1/conv5_block3_preact_bn_1/batchnorm/sub"], "attr": {"T": {"type": "DT_FLOAT"}}}, {"name": "StatefulPartitionedCall/sequential_1/resnet50v2_1/conv5_block3_preact_relu_1/Relu", "op": "Relu", "input": ["StatefulPartitionedCall/sequential_1/resnet50v2_1/conv5_block3_preact_bn_1/batchnorm/add_1"], "attr": {"T": {"type": "DT_FLOAT"}}}, {"name": "StatefulPartitionedCall/sequential_1/resnet50v2_1/conv5_block3_1_relu_1/Relu", "op": "_FusedConv2D", "input": ["StatefulPartitionedCall/sequential_1/resnet50v2_1/conv5_block3_preact_relu_1/Relu", "StatefulPartitionedCall/sequential_1/resnet50v2_1/conv5_block3_1_conv_1/convolution/merged_input", "StatefulPartitionedCall/sequential_1/resnet50v2_1/conv5_block3_1_bn_1/batchnorm/sub"], "device": "/device:CPU:0", "attr": {"num_host_args": {"i": "0"}, "data_format": {"s": "TkhXQw=="}, "filter_format": {"s": "SFdJTw=="}, "strides": {"list": {"i": ["1", "1", "1", "1"]}}, "num_args": {"i": "1"}, "fused_ops": {"list": {"s": ["Qmlhc0FkZA==", "UmVsdQ=="]}}, "TArgs": {"list": {"type": ["DT_FLOAT"]}}, "padding": {"s": "VkFMSUQ="}, "use_cudnn_on_gpu": {"b": true}, "leakyrelu_alpha": {"f": 0.2}, "epsilon": {"f": 0.0}, "T": {"type": "DT_FLOAT"}, "explicit_paddings": {"list": {}}, "dilations": {"list": {"i": ["1", "1", "1", "1"]}}}}, {"name": "StatefulPartitionedCall/sequential_1/resnet50v2_1/conv5_block3_2_pad_1/Pad", "op": "Pad", "input": ["StatefulPartitionedCall/sequential_1/resnet50v2_1/conv5_block3_1_relu_1/Relu", "StatefulPartitionedCall/sequential_1/resnet50v2_1/conv5_block3_2_pad_1/Const"], "attr": {"Tpaddings": {"type": "DT_INT32"}, "T": {"type": "DT_FLOAT"}}}, {"name": "StatefulPartitionedCall/sequential_1/resnet50v2_1/conv5_block3_2_relu_1/Relu", "op": "_FusedConv2D", "input": ["StatefulPartitionedCall/sequential_1/resnet50v2_1/conv5_block3_2_pad_1/Pad", "StatefulPartitionedCall/sequential_1/resnet50v2_1/conv5_block3_2_conv_1/convolution/merged_input", "StatefulPartitionedCall/sequential_1/resnet50v2_1/conv5_block3_2_bn_1/batchnorm/sub"], "device": "/device:CPU:0", "attr": {"num_host_args": {"i": "0"}, "data_format": {"s": "TkhXQw=="}, "filter_format": {"s": "SFdJTw=="}, "strides": {"list": {"i": ["1", "1", "1", "1"]}}, "num_args": {"i": "1"}, "fused_ops": {"list": {"s": ["Qmlhc0FkZA==", "UmVsdQ=="]}}, "TArgs": {"list": {"type": ["DT_FLOAT"]}}, "padding": {"s": "VkFMSUQ="}, "use_cudnn_on_gpu": {"b": true}, "leakyrelu_alpha": {"f": 0.2}, "epsilon": {"f": 0.0}, "T": {"type": "DT_FLOAT"}, "explicit_paddings": {"list": {}}, "dilations": {"list": {"i": ["1", "1", "1", "1"]}}}}, {"name": "StatefulPartitionedCall/sequential_1/resnet50v2_1/conv5_block3_3_conv_1/BiasAdd", "op": "_FusedConv2D", "input": ["StatefulPartitionedCall/sequential_1/resnet50v2_1/conv5_block3_2_relu_1/Relu", "StatefulPartitionedCall/sequential_1/resnet50v2_1/conv5_block3_3_conv_1/convolution/ReadVariableOp", "StatefulPartitionedCall/sequential_1/resnet50v2_1/conv5_block3_3_conv_1/Squeeze"], "device": "/device:CPU:0", "attr": {"num_host_args": {"i": "0"}, "data_format": {"s": "TkhXQw=="}, "filter_format": {"s": "SFdJTw=="}, "strides": {"list": {"i": ["1", "1", "1", "1"]}}, "num_args": {"i": "1"}, "fused_ops": {"list": {"s": ["Qmlhc0FkZA=="]}}, "TArgs": {"list": {"type": ["DT_FLOAT"]}}, "padding": {"s": "VkFMSUQ="}, "use_cudnn_on_gpu": {"b": true}, "leakyrelu_alpha": {"f": 0.2}, "epsilon": {"f": 0.0}, "T": {"type": "DT_FLOAT"}, "explicit_paddings": {"list": {}}, "dilations": {"list": {"i": ["1", "1", "1", "1"]}}}}, {"name": "StatefulPartitionedCall/sequential_1/resnet50v2_1/conv5_block3_out_1/Add", "op": "AddV2", "input": ["StatefulPartitionedCall/sequential_1/resnet50v2_1/conv5_block2_out_1/Add", "StatefulPartitionedCall/sequential_1/resnet50v2_1/conv5_block3_3_conv_1/BiasAdd"], "attr": {"T": {"type": "DT_FLOAT"}}}, {"name": "StatefulPartitionedCall/sequential_1/resnet50v2_1/post_bn_1/batchnorm/mul_1", "op": "Mul", "input": ["StatefulPartitionedCall/sequential_1/resnet50v2_1/conv5_block3_out_1/Add", "StatefulPartitionedCall/sequential_1/resnet50v2_1/post_bn_1/batchnorm/mul"], "attr": {"T": {"type": "DT_FLOAT"}}}, {"name": "StatefulPartitionedCall/sequential_1/resnet50v2_1/post_bn_1/batchnorm/add_1", "op": "AddV2", "input": ["StatefulPartitionedCall/sequential_1/resnet50v2_1/post_bn_1/batchnorm/mul_1", "StatefulPartitionedCall/sequential_1/resnet50v2_1/post_bn_1/batchnorm/sub"], "attr": {"T": {"type": "DT_FLOAT"}}}, {"name": "StatefulPartitionedCall/sequential_1/resnet50v2_1/post_relu_1/Relu", "op": "Relu", "input": ["StatefulPartitionedCall/sequential_1/resnet50v2_1/post_bn_1/batchnorm/add_1"], "attr": {"T": {"type": "DT_FLOAT"}}}, {"name": "StatefulPartitionedCall/sequential_1/global_average_pooling2d_1/Mean", "op": "Mean", "input": ["StatefulPartitionedCall/sequential_1/resnet50v2_1/post_relu_1/Relu", "StatefulPartitionedCall/sequential_1/global_average_pooling2d_1/Mean/reduction_indices"], "attr": {"T": {"type": "DT_FLOAT"}, "Tidx": {"type": "DT_INT32"}, "keep_dims": {"b": false}}}, {"name": "StatefulPartitionedCall/sequential_1/dense_1/Relu", "op": "_FusedMatMul", "input": ["StatefulPartitionedCall/sequential_1/global_average_pooling2d_1/Mean", "StatefulPartitionedCall/sequential_1/dense_1/Cast/ReadVariableOp", "StatefulPartitionedCall/sequential_1/dense_1/BiasAdd/ReadVariableOp"], "device": "/device:CPU:0", "attr": {"transpose_a": {"b": false}, "transpose_b": {"b": false}, "fused_ops": {"list": {"s": ["Qmlhc0FkZA==", "UmVsdQ=="]}}, "leakyrelu_alpha": {"f": 0.2}, "num_args": {"i": "1"}, "epsilon": {"f": 0.0}, "T": {"type": "DT_FLOAT"}}}, {"name": "StatefulPartitionedCall/sequential_1/batch_normalization_1/batchnorm/mul_1", "op": "Mul", "input": ["StatefulPartitionedCall/sequential_1/dense_1/Relu", "StatefulPartitionedCall/sequential_1/batch_normalization_1/batchnorm/mul"], "attr": {"T": {"type": "DT_FLOAT"}}}, {"name": "StatefulPartitionedCall/sequential_1/batch_normalization_1/batchnorm/add_1", "op": "AddV2", "input": ["StatefulPartitionedCall/sequential_1/batch_normalization_1/batchnorm/mul_1", "StatefulPartitionedCall/sequential_1/batch_normalization_1/batchnorm/sub"], "attr": {"T": {"type": "DT_FLOAT"}}}, {"name": "StatefulPartitionedCall/sequential_1/dense_1_2/Relu", "op": "_FusedMatMul", "input": ["StatefulPartitionedCall/sequential_1/batch_normalization_1/batchnorm/add_1", "StatefulPartitionedCall/sequential_1/dense_1_2/Cast/ReadVariableOp", "StatefulPartitionedCall/sequential_1/dense_1_2/BiasAdd/ReadVariableOp"], "device": "/device:CPU:0", "attr": {"transpose_a": {"b": false}, "transpose_b": {"b": false}, "fused_ops": {"list": {"s": ["Qmlhc0FkZA==", "UmVsdQ=="]}}, "leakyrelu_alpha": {"f": 0.2}, "num_args": {"i": "1"}, "epsilon": {"f": 0.0}, "T": {"type": "DT_FLOAT"}}}, {"name": "StatefulPartitionedCall/sequential_1/batch_normalization_1_2/batchnorm/mul_1", "op": "Mul", "input": ["StatefulPartitionedCall/sequential_1/dense_1_2/Relu", "StatefulPartitionedCall/sequential_1/batch_normalization_1_2/batchnorm/mul"], "attr": {"T": {"type": "DT_FLOAT"}}}, {"name": "StatefulPartitionedCall/sequential_1/batch_normalization_1_2/batchnorm/add_1", "op": "AddV2", "input": ["StatefulPartitionedCall/sequential_1/batch_normalization_1_2/batchnorm/mul_1", "StatefulPartitionedCall/sequential_1/batch_normalization_1_2/batchnorm/sub"], "attr": {"T": {"type": "DT_FLOAT"}}}, {"name": "StatefulPartitionedCall/sequential_1/dense_2_1/BiasAdd", "op": "_FusedMatMul", "input": ["StatefulPartitionedCall/sequential_1/batch_normalization_1_2/batchnorm/add_1", "StatefulPartitionedCall/sequential_1/dense_2_1/Cast/ReadVariableOp", "StatefulPartitionedCall/sequential_1/dense_2_1/BiasAdd/ReadVariableOp"], "device": "/device:CPU:0", "attr": {"transpose_a": {"b": false}, "transpose_b": {"b": false}, "fused_ops": {"list": {"s": ["Qmlhc0FkZA=="]}}, "num_args": {"i": "1"}, "leakyrelu_alpha": {"f": 0.2}, "epsilon": {"f": 0.0}, "T": {"type": "DT_FLOAT"}}}, {"name": "StatefulPartitionedCall/sequential_1/dense_2_1/Softmax", "op": "Softmax", "input": ["StatefulPartitionedCall/sequential_1/dense_2_1/BiasAdd"], "attr": {"T": {"type": "DT_FLOAT"}}}, {"name": "Identity", "op": "Identity", "input": ["StatefulPartitionedCall/sequential_1/dense_2_1/Softmax"], "attr": {"T": {"type": "DT_FLOAT"}}}], "library": {}, "versions": {"producer": 2129}}, "weightsManifest": [{"paths": ["group1-shard1of24.bin", "group1-shard2of24.bin", "group1-shard3of24.bin", "group1-shard4of24.bin", "group1-shard5of24.bin", "group1-shard6of24.bin", "group1-shard7of24.bin", "group1-shard8of24.bin", "group1-shard9of24.bin", "group1-shard10of24.bin", "group1-shard11of24.bin", "group1-shard12of24.bin", "group1-shard13of24.bin", "group1-shard14of24.bin", "group1-shard15of24.bin", "group1-shard16of24.bin", "group1-shard17of24.bin", "group1-shard18of24.bin", "group1-shard19of24.bin", "group1-shard20of24.bin", "group1-shard21of24.bin", "group1-shard22of24.bin", "group1-shard23of24.bin", "group1-shard24of24.bin"], "weights": [{"name": "StatefulPartitionedCall/sequential_1/resnet50v2_1/conv5_block1_0_conv_1/convolution/ReadVariableOp", "shape": [1, 1, 1024, 2048], "dtype": "float32"}, {"name": "StatefulPartitionedCall/sequential_1/resnet50v2_1/conv5_block1_0_conv_1/Squeeze", "shape": [2048], "dtype": "float32"}, {"name": "StatefulPartitionedCall/sequential_1/resnet50v2_1/conv4_block1_0_conv_1/convolution/ReadVariableOp", "shape": [1, 1, 512, 1024], "dtype": "float32"}, {"name": "StatefulPartitionedCall/sequential_1/resnet50v2_1/conv4_block1_0_conv_1/Squeeze", "shape": [1024], "dtype": "float32"}, {"name": "StatefulPartitionedCall/sequential_1/resnet50v2_1/conv3_block1_0_conv_1/convolution/ReadVariableOp", "shape": [1, 1, 256, 512], "dtype": "float32"}, {"name": "StatefulPartitionedCall/sequential_1/resnet50v2_1/conv3_block1_0_conv_1/Squeeze", "shape": [512], "dtype": "float32"}, {"name": "StatefulPartitionedCall/sequential_1/resnet50v2_1/conv2_block1_0_conv_1/convolution/ReadVariableOp", "shape": [1, 1, 64, 256], "dtype": "float32"}, {"name": "StatefulPartitionedCall/sequential_1/resnet50v2_1/conv2_block1_0_conv_1/Squeeze", "shape": [256], "dtype": "float32"}, {"name": "StatefulPartitionedCall/sequential_1/resnet50v2_1/conv1_pad_1/Const", "shape": [4, 2], "dtype": "int32"}, {"name": "StatefulPartitionedCall/sequential_1/resnet50v2_1/conv1_conv_1/convolution/ReadVariableOp", "shape": [7, 7, 3, 64], "dtype": "float32"}, {"name": "StatefulPartitionedCall/sequential_1/resnet50v2_1/conv1_conv_1/Squeeze", "shape": [64], "dtype": "float32"}, {"name": "StatefulPartitionedCall/sequential_1/resnet50v2_1/pool1_pad_1/Const", "shape": [4, 2], "dtype": "int32"}, {"name": "StatefulPartitionedCall/sequential_1/resnet50v2_1/conv2_block1_preact_bn_1/batchnorm/mul", "shape": [1, 1, 1, 64], "dtype": "float32"}, {"name": "StatefulPartitionedCall/sequential_1/resnet50v2_1/conv2_block1_preact_bn_1/batchnorm/sub", "shape": [1, 1, 1, 64], "dtype": "float32"}, {"name": "StatefulPartitionedCall/sequential_1/resnet50v2_1/conv2_block1_1_conv_1/convolution/merged_input", "shape": [1, 1, 64, 64], "dtype": "float32"}, {"name": "StatefulPartitionedCall/sequential_1/resnet50v2_1/conv2_block1_1_bn_1/batchnorm/sub", "shape": [1, 1, 1, 64], "dtype": "float32"}, {"name": "StatefulPartitionedCall/sequential_1/resnet50v2_1/conv2_block1_2_pad_1/Const", "shape": [4, 2], "dtype": "int32"}, {"name": "StatefulPartitionedCall/sequential_1/resnet50v2_1/conv2_block1_2_conv_1/convolution/merged_input", "shape": [3, 3, 64, 64], "dtype": "float32"}, {"name": "StatefulPartitionedCall/sequential_1/resnet50v2_1/conv2_block1_2_bn_1/batchnorm/sub", "shape": [1, 1, 1, 64], "dtype": "float32"}, {"name": "StatefulPartitionedCall/sequential_1/resnet50v2_1/conv2_block1_3_conv_1/convolution/ReadVariableOp", "shape": [1, 1, 64, 256], "dtype": "float32"}, {"name": "StatefulPartitionedCall/sequential_1/resnet50v2_1/conv2_block1_3_conv_1/Squeeze", "shape": [256], "dtype": "float32"}, {"name": "StatefulPartitionedCall/sequential_1/resnet50v2_1/conv2_block2_preact_bn_1/batchnorm/mul", "shape": [1, 1, 1, 256], "dtype": "float32"}, {"name": "StatefulPartitionedCall/sequential_1/resnet50v2_1/conv2_block2_preact_bn_1/batchnorm/sub", "shape": [1, 1, 1, 256], "dtype": "float32"}, {"name": "StatefulPartitionedCall/sequential_1/resnet50v2_1/conv2_block2_1_conv_1/convolution/merged_input", "shape": [1, 1, 256, 64], "dtype": "float32"}, {"name": "StatefulPartitionedCall/sequential_1/resnet50v2_1/conv2_block2_1_bn_1/batchnorm/sub", "shape": [1, 1, 1, 64], "dtype": "float32"}, {"name": "StatefulPartitionedCall/sequential_1/resnet50v2_1/conv2_block2_2_pad_1/Const", "shape": [4, 2], "dtype": "int32"}, {"name": "StatefulPartitionedCall/sequential_1/resnet50v2_1/conv2_block2_2_conv_1/convolution/merged_input", "shape": [3, 3, 64, 64], "dtype": "float32"}, {"name": "StatefulPartitionedCall/sequential_1/resnet50v2_1/conv2_block2_2_bn_1/batchnorm/sub", "shape": [1, 1, 1, 64], "dtype": "float32"}, {"name": "StatefulPartitionedCall/sequential_1/resnet50v2_1/conv2_block2_3_conv_1/convolution/ReadVariableOp", "shape": [1, 1, 64, 256], "dtype": "float32"}, {"name": "StatefulPartitionedCall/sequential_1/resnet50v2_1/conv2_block2_3_conv_1/Squeeze", "shape": [256], "dtype": "float32"}, {"name": "StatefulPartitionedCall/sequential_1/resnet50v2_1/conv2_block3_preact_bn_1/batchnorm/mul", "shape": [1, 1, 1, 256], "dtype": "float32"}, {"name": "StatefulPartitionedCall/sequential_1/resnet50v2_1/conv2_block3_preact_bn_1/batchnorm/sub", "shape": [1, 1, 1, 256], "dtype": "float32"}, {"name": "StatefulPartitionedCall/sequential_1/resnet50v2_1/conv2_block3_1_conv_1/convolution/merged_input", "shape": [1, 1, 256, 64], "dtype": "float32"}, {"name": "StatefulPartitionedCall/sequential_1/resnet50v2_1/conv2_block3_1_bn_1/batchnorm/sub", "shape": [1, 1, 1, 64], "dtype": "float32"}, {"name": "StatefulPartitionedCall/sequential_1/resnet50v2_1/conv2_block3_2_pad_1/Const", "shape": [4, 2], "dtype": "int32"}, {"name": "StatefulPartitionedCall/sequential_1/resnet50v2_1/conv2_block3_2_conv_1/convolution/merged_input", "shape": [3, 3, 64, 64], "dtype": "float32"}, {"name": "StatefulPartitionedCall/sequential_1/resnet50v2_1/conv2_block3_2_bn_1/batchnorm/sub", "shape": [1, 1, 1, 64], "dtype": "float32"}, {"name": "StatefulPartitionedCall/sequential_1/resnet50v2_1/conv2_block3_3_conv_1/convolution/ReadVariableOp", "shape": [1, 1, 64, 256], "dtype": "float32"}, {"name": "StatefulPartitionedCall/sequential_1/resnet50v2_1/conv2_block3_3_conv_1/Squeeze", "shape": [256], "dtype": "float32"}, {"name": "StatefulPartitionedCall/sequential_1/resnet50v2_1/conv3_block1_preact_bn_1/batchnorm/mul", "shape": [1, 1, 1, 256], "dtype": "float32"}, {"name": "StatefulPartitionedCall/sequential_1/resnet50v2_1/conv3_block1_preact_bn_1/batchnorm/sub", "shape": [1, 1, 1, 256], "dtype": "float32"}, {"name": "StatefulPartitionedCall/sequential_1/resnet50v2_1/conv3_block1_1_conv_1/convolution/merged_input", "shape": [1, 1, 256, 128], "dtype": "float32"}, {"name": "StatefulPartitionedCall/sequential_1/resnet50v2_1/conv3_block1_1_bn_1/batchnorm/sub", "shape": [1, 1, 1, 128], "dtype": "float32"}, {"name": "StatefulPartitionedCall/sequential_1/resnet50v2_1/conv3_block1_2_pad_1/Const", "shape": [4, 2], "dtype": "int32"}, {"name": "StatefulPartitionedCall/sequential_1/resnet50v2_1/conv3_block1_2_conv_1/convolution/merged_input", "shape": [3, 3, 128, 128], "dtype": "float32"}, {"name": "StatefulPartitionedCall/sequential_1/resnet50v2_1/conv3_block1_2_bn_1/batchnorm/sub", "shape": [1, 1, 1, 128], "dtype": "float32"}, {"name": "StatefulPartitionedCall/sequential_1/resnet50v2_1/conv3_block1_3_conv_1/convolution/ReadVariableOp", "shape": [1, 1, 128, 512], "dtype": "float32"}, {"name": "StatefulPartitionedCall/sequential_1/resnet50v2_1/conv3_block1_3_conv_1/Squeeze", "shape": [512], "dtype": "float32"}, {"name": "StatefulPartitionedCall/sequential_1/resnet50v2_1/conv3_block2_preact_bn_1/batchnorm/mul", "shape": [1, 1, 1, 512], "dtype": "float32"}, {"name": "StatefulPartitionedCall/sequential_1/resnet50v2_1/conv3_block2_preact_bn_1/batchnorm/sub", "shape": [1, 1, 1, 512], "dtype": "float32"}, {"name": "StatefulPartitionedCall/sequential_1/resnet50v2_1/conv3_block2_1_conv_1/convolution/merged_input", "shape": [1, 1, 512, 128], "dtype": "float32"}, {"name": "StatefulPartitionedCall/sequential_1/resnet50v2_1/conv3_block2_1_bn_1/batchnorm/sub", "shape": [1, 1, 1, 128], "dtype": "float32"}, {"name": "StatefulPartitionedCall/sequential_1/resnet50v2_1/conv3_block2_2_pad_1/Const", "shape": [4, 2], "dtype": "int32"}, {"name": "StatefulPartitionedCall/sequential_1/resnet50v2_1/conv3_block2_2_conv_1/convolution/merged_input", "shape": [3, 3, 128, 128], "dtype": "float32"}, {"name": "StatefulPartitionedCall/sequential_1/resnet50v2_1/conv3_block2_2_bn_1/batchnorm/sub", "shape": [1, 1, 1, 128], "dtype": "float32"}, {"name": "StatefulPartitionedCall/sequential_1/resnet50v2_1/conv3_block2_3_conv_1/convolution/ReadVariableOp", "shape": [1, 1, 128, 512], "dtype": "float32"}, {"name": "StatefulPartitionedCall/sequential_1/resnet50v2_1/conv3_block2_3_conv_1/Squeeze", "shape": [512], "dtype": "float32"}, {"name": "StatefulPartitionedCall/sequential_1/resnet50v2_1/conv3_block3_preact_bn_1/batchnorm/mul", "shape": [1, 1, 1, 512], "dtype": "float32"}, {"name": "StatefulPartitionedCall/sequential_1/resnet50v2_1/conv3_block3_preact_bn_1/batchnorm/sub", "shape": [1, 1, 1, 512], "dtype": "float32"}, {"name": "StatefulPartitionedCall/sequential_1/resnet50v2_1/conv3_block3_1_conv_1/convolution/merged_input", "shape": [1, 1, 512, 128], "dtype": "float32"}, {"name": "StatefulPartitionedCall/sequential_1/resnet50v2_1/conv3_block3_1_bn_1/batchnorm/sub", "shape": [1, 1, 1, 128], "dtype": "float32"}, {"name": "StatefulPartitionedCall/sequential_1/resnet50v2_1/conv3_block3_2_pad_1/Const", "shape": [4, 2], "dtype": "int32"}, {"name": "StatefulPartitionedCall/sequential_1/resnet50v2_1/conv3_block3_2_conv_1/convolution/merged_input", "shape": [3, 3, 128, 128], "dtype": "float32"}, {"name": "StatefulPartitionedCall/sequential_1/resnet50v2_1/conv3_block3_2_bn_1/batchnorm/sub", "shape": [1, 1, 1, 128], "dtype": "float32"}, {"name": "StatefulPartitionedCall/sequential_1/resnet50v2_1/conv3_block3_3_conv_1/convolution/ReadVariableOp", "shape": [1, 1, 128, 512], "dtype": "float32"}, {"name": "StatefulPartitionedCall/sequential_1/resnet50v2_1/conv3_block3_3_conv_1/Squeeze", "shape": [512], "dtype": "float32"}, {"name": "StatefulPartitionedCall/sequential_1/resnet50v2_1/conv3_block4_preact_bn_1/batchnorm/mul", "shape": [1, 1, 1, 512], "dtype": "float32"}, {"name": "StatefulPartitionedCall/sequential_1/resnet50v2_1/conv3_block4_preact_bn_1/batchnorm/sub", "shape": [1, 1, 1, 512], "dtype": "float32"}, {"name": "StatefulPartitionedCall/sequential_1/resnet50v2_1/conv3_block4_1_conv_1/convolution/merged_input", "shape": [1, 1, 512, 128], "dtype": "float32"}, {"name": "StatefulPartitionedCall/sequential_1/resnet50v2_1/conv3_block4_1_bn_1/batchnorm/sub", "shape": [1, 1, 1, 128], "dtype": "float32"}, {"name": "StatefulPartitionedCall/sequential_1/resnet50v2_1/conv3_block4_2_pad_1/Const", "shape": [4, 2], "dtype": "int32"}, {"name": "StatefulPartitionedCall/sequential_1/resnet50v2_1/conv3_block4_2_conv_1/convolution/merged_input", "shape": [3, 3, 128, 128], "dtype": "float32"}, {"name": "StatefulPartitionedCall/sequential_1/resnet50v2_1/conv3_block4_2_bn_1/batchnorm/sub", "shape": [1, 1, 1, 128], "dtype": "float32"}, {"name": "StatefulPartitionedCall/sequential_1/resnet50v2_1/conv3_block4_3_conv_1/convolution/ReadVariableOp", "shape": [1, 1, 128, 512], "dtype": "float32"}, {"name": "StatefulPartitionedCall/sequential_1/resnet50v2_1/conv3_block4_3_conv_1/Squeeze", "shape": [512], "dtype": "float32"}, {"name": "StatefulPartitionedCall/sequential_1/resnet50v2_1/conv4_block1_preact_bn_1/batchnorm/mul", "shape": [1, 1, 1, 512], "dtype": "float32"}, {"name": "StatefulPartitionedCall/sequential_1/resnet50v2_1/conv4_block1_preact_bn_1/batchnorm/sub", "shape": [1, 1, 1, 512], "dtype": "float32"}, {"name": "StatefulPartitionedCall/sequential_1/resnet50v2_1/conv4_block1_1_conv_1/convolution/merged_input", "shape": [1, 1, 512, 256], "dtype": "float32"}, {"name": "StatefulPartitionedCall/sequential_1/resnet50v2_1/conv4_block1_1_bn_1/batchnorm/sub", "shape": [1, 1, 1, 256], "dtype": "float32"}, {"name": "StatefulPartitionedCall/sequential_1/resnet50v2_1/conv4_block1_2_pad_1/Const", "shape": [4, 2], "dtype": "int32"}, {"name": "StatefulPartitionedCall/sequential_1/resnet50v2_1/conv4_block1_2_conv_1/convolution/merged_input", "shape": [3, 3, 256, 256], "dtype": "float32"}, {"name": "StatefulPartitionedCall/sequential_1/resnet50v2_1/conv4_block1_2_bn_1/batchnorm/sub", "shape": [1, 1, 1, 256], "dtype": "float32"}, {"name": "StatefulPartitionedCall/sequential_1/resnet50v2_1/conv4_block1_3_conv_1/convolution/ReadVariableOp", "shape": [1, 1, 256, 1024], "dtype": "float32"}, {"name": "StatefulPartitionedCall/sequential_1/resnet50v2_1/conv4_block1_3_conv_1/Squeeze", "shape": [1024], "dtype": "float32"}, {"name": "StatefulPartitionedCall/sequential_1/resnet50v2_1/conv4_block2_preact_bn_1/batchnorm/mul", "shape": [1, 1, 1, 1024], "dtype": "float32"}, {"name": "StatefulPartitionedCall/sequential_1/resnet50v2_1/conv4_block2_preact_bn_1/batchnorm/sub", "shape": [1, 1, 1, 1024], "dtype": "float32"}, {"name": "StatefulPartitionedCall/sequential_1/resnet50v2_1/conv4_block2_1_conv_1/convolution/merged_input", "shape": [1, 1, 1024, 256], "dtype": "float32"}, {"name": "StatefulPartitionedCall/sequential_1/resnet50v2_1/conv4_block2_1_bn_1/batchnorm/sub", "shape": [1, 1, 1, 256], "dtype": "float32"}, {"name": "StatefulPartitionedCall/sequential_1/resnet50v2_1/conv4_block2_2_pad_1/Const", "shape": [4, 2], "dtype": "int32"}, {"name": "StatefulPartitionedCall/sequential_1/resnet50v2_1/conv4_block2_2_conv_1/convolution/merged_input", "shape": [3, 3, 256, 256], "dtype": "float32"}, {"name": "StatefulPartitionedCall/sequential_1/resnet50v2_1/conv4_block2_2_bn_1/batchnorm/sub", "shape": [1, 1, 1, 256], "dtype": "float32"}, {"name": "StatefulPartitionedCall/sequential_1/resnet50v2_1/conv4_block2_3_conv_1/convolution/ReadVariableOp", "shape": [1, 1, 256, 1024], "dtype": "float32"}, {"name": "StatefulPartitionedCall/sequential_1/resnet50v2_1/conv4_block2_3_conv_1/Squeeze", "shape": [1024], "dtype": "float32"}, {"name": "StatefulPartitionedCall/sequential_1/resnet50v2_1/conv4_block3_preact_bn_1/batchnorm/mul", "shape": [1, 1, 1, 1024], "dtype": "float32"}, {"name": "StatefulPartitionedCall/sequential_1/resnet50v2_1/conv4_block3_preact_bn_1/batchnorm/sub", "shape": [1, 1, 1, 1024], "dtype": "float32"}, {"name": "StatefulPartitionedCall/sequential_1/resnet50v2_1/conv4_block3_1_conv_1/convolution/merged_input", "shape": [1, 1, 1024, 256], "dtype": "float32"}, {"name": "StatefulPartitionedCall/sequential_1/resnet50v2_1/conv4_block3_1_bn_1/batchnorm/sub", "shape": [1, 1, 1, 256], "dtype": "float32"}, {"name": "StatefulPartitionedCall/sequential_1/resnet50v2_1/conv4_block3_2_pad_1/Const", "shape": [4, 2], "dtype": "int32"}, {"name": "StatefulPartitionedCall/sequential_1/resnet50v2_1/conv4_block3_2_conv_1/convolution/merged_input", "shape": [3, 3, 256, 256], "dtype": "float32"}, {"name": "StatefulPartitionedCall/sequential_1/resnet50v2_1/conv4_block3_2_bn_1/batchnorm/sub", "shape": [1, 1, 1, 256], "dtype": "float32"}, {"name": "StatefulPartitionedCall/sequential_1/resnet50v2_1/conv4_block3_3_conv_1/convolution/ReadVariableOp", "shape": [1, 1, 256, 1024], "dtype": "float32"}, {"name": "StatefulPartitionedCall/sequential_1/resnet50v2_1/conv4_block3_3_conv_1/Squeeze", "shape": [1024], "dtype": "float32"}, {"name": "StatefulPartitionedCall/sequential_1/resnet50v2_1/conv4_block4_preact_bn_1/batchnorm/mul", "shape": [1, 1, 1, 1024], "dtype": "float32"}, {"name": "StatefulPartitionedCall/sequential_1/resnet50v2_1/conv4_block4_preact_bn_1/batchnorm/sub", "shape": [1, 1, 1, 1024], "dtype": "float32"}, {"name": "StatefulPartitionedCall/sequential_1/resnet50v2_1/conv4_block4_1_conv_1/convolution/merged_input", "shape": [1, 1, 1024, 256], "dtype": "float32"}, {"name": "StatefulPartitionedCall/sequential_1/resnet50v2_1/conv4_block4_1_bn_1/batchnorm/sub", "shape": [1, 1, 1, 256], "dtype": "float32"}, {"name": "StatefulPartitionedCall/sequential_1/resnet50v2_1/conv4_block4_2_pad_1/Const", "shape": [4, 2], "dtype": "int32"}, {"name": "StatefulPartitionedCall/sequential_1/resnet50v2_1/conv4_block4_2_conv_1/convolution/merged_input", "shape": [3, 3, 256, 256], "dtype": "float32"}, {"name": "StatefulPartitionedCall/sequential_1/resnet50v2_1/conv4_block4_2_bn_1/batchnorm/sub", "shape": [1, 1, 1, 256], "dtype": "float32"}, {"name": "StatefulPartitionedCall/sequential_1/resnet50v2_1/conv4_block4_3_conv_1/convolution/ReadVariableOp", "shape": [1, 1, 256, 1024], "dtype": "float32"}, {"name": "StatefulPartitionedCall/sequential_1/resnet50v2_1/conv4_block4_3_conv_1/Squeeze", "shape": [1024], "dtype": "float32"}, {"name": "StatefulPartitionedCall/sequential_1/resnet50v2_1/conv4_block5_preact_bn_1/batchnorm/mul", "shape": [1, 1, 1, 1024], "dtype": "float32"}, {"name": "StatefulPartitionedCall/sequential_1/resnet50v2_1/conv4_block5_preact_bn_1/batchnorm/sub", "shape": [1, 1, 1, 1024], "dtype": "float32"}, {"name": "StatefulPartitionedCall/sequential_1/resnet50v2_1/conv4_block5_1_conv_1/convolution/merged_input", "shape": [1, 1, 1024, 256], "dtype": "float32"}, {"name": "StatefulPartitionedCall/sequential_1/resnet50v2_1/conv4_block5_1_bn_1/batchnorm/sub", "shape": [1, 1, 1, 256], "dtype": "float32"}, {"name": "StatefulPartitionedCall/sequential_1/resnet50v2_1/conv4_block5_2_pad_1/Const", "shape": [4, 2], "dtype": "int32"}, {"name": "StatefulPartitionedCall/sequential_1/resnet50v2_1/conv4_block5_2_conv_1/convolution/merged_input", "shape": [3, 3, 256, 256], "dtype": "float32"}, {"name": "StatefulPartitionedCall/sequential_1/resnet50v2_1/conv4_block5_2_bn_1/batchnorm/sub", "shape": [1, 1, 1, 256], "dtype": "float32"}, {"name": "StatefulPartitionedCall/sequential_1/resnet50v2_1/conv4_block5_3_conv_1/convolution/ReadVariableOp", "shape": [1, 1, 256, 1024], "dtype": "float32"}, {"name": "StatefulPartitionedCall/sequential_1/resnet50v2_1/conv4_block5_3_conv_1/Squeeze", "shape": [1024], "dtype": "float32"}, {"name": "StatefulPartitionedCall/sequential_1/resnet50v2_1/conv4_block6_preact_bn_1/batchnorm/mul", "shape": [1, 1, 1, 1024], "dtype": "float32"}, {"name": "StatefulPartitionedCall/sequential_1/resnet50v2_1/conv4_block6_preact_bn_1/batchnorm/sub", "shape": [1, 1, 1, 1024], "dtype": "float32"}, {"name": "StatefulPartitionedCall/sequential_1/resnet50v2_1/conv4_block6_1_conv_1/convolution/merged_input", "shape": [1, 1, 1024, 256], "dtype": "float32"}, {"name": "StatefulPartitionedCall/sequential_1/resnet50v2_1/conv4_block6_1_bn_1/batchnorm/sub", "shape": [1, 1, 1, 256], "dtype": "float32"}, {"name": "StatefulPartitionedCall/sequential_1/resnet50v2_1/conv4_block6_2_pad_1/Const", "shape": [4, 2], "dtype": "int32"}, {"name": "StatefulPartitionedCall/sequential_1/resnet50v2_1/conv4_block6_2_conv_1/convolution/merged_input", "shape": [3, 3, 256, 256], "dtype": "float32"}, {"name": "StatefulPartitionedCall/sequential_1/resnet50v2_1/conv4_block6_2_bn_1/batchnorm/sub", "shape": [1, 1, 1, 256], "dtype": "float32"}, {"name": "StatefulPartitionedCall/sequential_1/resnet50v2_1/conv4_block6_3_conv_1/convolution/ReadVariableOp", "shape": [1, 1, 256, 1024], "dtype": "float32"}, {"name": "StatefulPartitionedCall/sequential_1/resnet50v2_1/conv4_block6_3_conv_1/Squeeze", "shape": [1024], "dtype": "float32"}, {"name": "StatefulPartitionedCall/sequential_1/resnet50v2_1/conv5_block1_preact_bn_1/batchnorm/mul", "shape": [1, 1, 1, 1024], "dtype": "float32"}, {"name": "StatefulPartitionedCall/sequential_1/resnet50v2_1/conv5_block1_preact_bn_1/batchnorm/sub", "shape": [1, 1, 1, 1024], "dtype": "float32"}, {"name": "StatefulPartitionedCall/sequential_1/resnet50v2_1/conv5_block1_1_conv_1/convolution/merged_input", "shape": [1, 1, 1024, 512], "dtype": "float32"}, {"name": "StatefulPartitionedCall/sequential_1/resnet50v2_1/conv5_block1_1_bn_1/batchnorm/sub", "shape": [1, 1, 1, 512], "dtype": "float32"}, {"name": "StatefulPartitionedCall/sequential_1/resnet50v2_1/conv5_block1_2_pad_1/Const", "shape": [4, 2], "dtype": "int32"}, {"name": "StatefulPartitionedCall/sequential_1/resnet50v2_1/conv5_block1_2_conv_1/convolution/merged_input", "shape": [3, 3, 512, 512], "dtype": "float32"}, {"name": "StatefulPartitionedCall/sequential_1/resnet50v2_1/conv5_block1_2_bn_1/batchnorm/sub", "shape": [1, 1, 1, 512], "dtype": "float32"}, {"name": "StatefulPartitionedCall/sequential_1/resnet50v2_1/conv5_block1_3_conv_1/convolution/ReadVariableOp", "shape": [1, 1, 512, 2048], "dtype": "float32"}, {"name": "StatefulPartitionedCall/sequential_1/resnet50v2_1/conv5_block1_3_conv_1/Squeeze", "shape": [2048], "dtype": "float32"}, {"name": "StatefulPartitionedCall/sequential_1/resnet50v2_1/conv5_block2_preact_bn_1/batchnorm/mul", "shape": [1, 1, 1, 2048], "dtype": "float32"}, {"name": "StatefulPartitionedCall/sequential_1/resnet50v2_1/conv5_block2_preact_bn_1/batchnorm/sub", "shape": [1, 1, 1, 2048], "dtype": "float32"}, {"name": "StatefulPartitionedCall/sequential_1/resnet50v2_1/conv5_block2_1_conv_1/convolution/merged_input", "shape": [1, 1, 2048, 512], "dtype": "float32"}, {"name": "StatefulPartitionedCall/sequential_1/resnet50v2_1/conv5_block2_1_bn_1/batchnorm/sub", "shape": [1, 1, 1, 512], "dtype": "float32"}, {"name": "StatefulPartitionedCall/sequential_1/resnet50v2_1/conv5_block2_2_pad_1/Const", "shape": [4, 2], "dtype": "int32"}, {"name": "StatefulPartitionedCall/sequential_1/resnet50v2_1/conv5_block2_2_conv_1/convolution/merged_input", "shape": [3, 3, 512, 512], "dtype": "float32"}, {"name": "StatefulPartitionedCall/sequential_1/resnet50v2_1/conv5_block2_2_bn_1/batchnorm/sub", "shape": [1, 1, 1, 512], "dtype": "float32"}, {"name": "StatefulPartitionedCall/sequential_1/resnet50v2_1/conv5_block2_3_conv_1/convolution/ReadVariableOp", "shape": [1, 1, 512, 2048], "dtype": "float32"}, {"name": "StatefulPartitionedCall/sequential_1/resnet50v2_1/conv5_block2_3_conv_1/Squeeze", "shape": [2048], "dtype": "float32"}, {"name": "StatefulPartitionedCall/sequential_1/resnet50v2_1/conv5_block3_preact_bn_1/batchnorm/mul", "shape": [1, 1, 1, 2048], "dtype": "float32"}, {"name": "StatefulPartitionedCall/sequential_1/resnet50v2_1/conv5_block3_preact_bn_1/batchnorm/sub", "shape": [1, 1, 1, 2048], "dtype": "float32"}, {"name": "StatefulPartitionedCall/sequential_1/resnet50v2_1/conv5_block3_1_conv_1/convolution/merged_input", "shape": [1, 1, 2048, 512], "dtype": "float32"}, {"name": "StatefulPartitionedCall/sequential_1/resnet50v2_1/conv5_block3_1_bn_1/batchnorm/sub", "shape": [1, 1, 1, 512], "dtype": "float32"}, {"name": "StatefulPartitionedCall/sequential_1/resnet50v2_1/conv5_block3_2_pad_1/Const", "shape": [4, 2], "dtype": "int32"}, {"name": "StatefulPartitionedCall/sequential_1/resnet50v2_1/conv5_block3_2_conv_1/convolution/merged_input", "shape": [3, 3, 512, 512], "dtype": "float32"}, {"name": "StatefulPartitionedCall/sequential_1/resnet50v2_1/conv5_block3_2_bn_1/batchnorm/sub", "shape": [1, 1, 1, 512], "dtype": "float32"}, {"name": "StatefulPartitionedCall/sequential_1/resnet50v2_1/conv5_block3_3_conv_1/convolution/ReadVariableOp", "shape": [1, 1, 512, 2048], "dtype": "float32"}, {"name": "StatefulPartitionedCall/sequential_1/resnet50v2_1/conv5_block3_3_conv_1/Squeeze", "shape": [2048], "dtype": "float32"}, {"name": "StatefulPartitionedCall/sequential_1/resnet50v2_1/post_bn_1/batchnorm/mul", "shape": [1, 1, 1, 2048], "dtype": "float32"}, {"name": "StatefulPartitionedCall/sequential_1/resnet50v2_1/post_bn_1/batchnorm/sub", "shape": [1, 1, 1, 2048], "dtype": "float32"}, {"name": "StatefulPartitionedCall/sequential_1/global_average_pooling2d_1/Mean/reduction_indices", "shape": [2], "dtype": "int32"}, {"name": "StatefulPartitionedCall/sequential_1/dense_1/Cast/ReadVariableOp", "shape": [2048, 512], "dtype": "float32"}, {"name": "StatefulPartitionedCall/sequential_1/dense_1/BiasAdd/ReadVariableOp", "shape": [512], "dtype": "float32"}, {"name": "StatefulPartitionedCall/sequential_1/batch_normalization_1/batchnorm/mul", "shape": [512], "dtype": "float32"}, {"name": "StatefulPartitionedCall/sequential_1/batch_normalization_1/batchnorm/sub", "shape": [512], "dtype": "float32"}, {"name": "StatefulPartitionedCall/sequential_1/dense_1_2/Cast/ReadVariableOp", "shape": [512, 256], "dtype": "float32"}, {"name": "StatefulPartitionedCall/sequential_1/dense_1_2/BiasAdd/ReadVariableOp", "shape": [256], "dtype": "float32"}, {"name": "StatefulPartitionedCall/sequential_1/batch_normalization_1_2/batchnorm/mul", "shape": [256], "dtype": "float32"}, {"name": "StatefulPartitionedCall/sequential_1/batch_normalization_1_2/batchnorm/sub", "shape": [256], "dtype": "float32"}, {"name": "StatefulPartitionedCall/sequential_1/dense_2_1/Cast/ReadVariableOp", "shape": [256, 5], "dtype": "float32"}, {"name": "StatefulPartitionedCall/sequential_1/dense_2_1/BiasAdd/ReadVariableOp", "shape": [5], "dtype": "float32"}]}]}